model/glove_model.pth (torch, 47941 bytes, 4 tensors)

embedding_center.weight f4 [1889, 2]
000000 e5 20 89 be 2e 8d 61 bf 57 6b e8 3f 90 ea a7 3f
       -0.2678291 -0.8810605 1.8157758 1.3118458
000010 dd 93 86 3e 39 d0 50 3c ca 41 5a bf d5 73 3d 3d
       0.26284686 0.012744957 -0.85256636 0.046253044
000020 75 65 61 3e 0b 5f df be 91 75 f3 be d1 95 b9 bf
       0.22011359 -0.436272 -0.47550634 -1.4498845
000030 b5 c1 40 3e c6 a1 9b bf 30 67 af 3e 5a a7 bf 3f
       0.18823893 -1.2158744 0.34258413 1.4972947
000040 43 66 df 3f e5 8a e3 3e 14 45 aa be c4 13 c4 3f
       1.7453083 0.44441906 -0.33255827 1.5318532
000050 6d 67 19 be 30 bc dd be e5 90 0d c0 bf fe 73 bf
       -0.1498086 -0.43307638 -2.2119687 -0.95310587
000060 e3 7a 53 be 48 a7 00 3e 58 ee b2 be 55 53 da be
       -0.20652346 0.12563813 -0.34947467 -0.42641702
000070 cb 71 07 be cd 90 c3 3e 23 25 25 3e 5b 7f 6c 3f
       -0.13227002 0.38196412 0.16127448 0.9238183
000080 0f 6d 91 bf c4 f6 4b 3f 5f 08 69 3f cd b0 a5 bf
       -1.1361407 0.7967341 0.910284 -1.294458
000090 06 a4 04 bf 3d 65 e2 3d 17 40 8f be 5e 7e 7b bf
       -0.5181278 0.11054466 -0.27978584 -0.98239696
0000a0 32 f5 5c 3e a7 b8 75 3c 08 a5 0f bf 15 82 a1 bf
       0.2157791 0.014997638 -0.5611119 -1.2617823
0000b0 f0 05 b3 3f 85 55 ce be 09 a7 57 3f 05 01 93 bc
       1.3986187 -0.4029962 0.8423925 -0.017944822
0000c0 06 6b d2 3f a1 d9 42 bf d1 ac 99 be d4 d8 e1 be
       1.6438911 -0.76113325 -0.3001466 -0.4411074
0000d0 3e 62 12 3f 13 74 bb 3f 46 e2 b4 3e 2d 7a 6c 3f
       0.57181156 1.4644798 0.35328883 0.92373925
0000e0 63 b9 87 3f 25 63 bd 3e db cf b9 3e 0e 85 d6 3f
       1.060345 0.36989704 0.36291394 1.6759355
0000f0 95 da 7c 3e 75 be 1d bf 63 7e aa bf 8e fd 57 bf
       0.24692757 -0.6161874 -1.331982 -0.8437127
000100 2e a1 2d 3f 93 5a bf bf ed 3b 3c 3f 2a 1f 7d 3f
       0.67824066 -1.4949516 0.7352894 0.9887568
000110 38 b0 f2 bf 4a d9 0a 40 39 dc 5b be 02 39 a1 3e
       -1.8960028 2.1695123 -0.21470727 0.31488806
000120 13 b0 60 bf 0b 6e 64 bf 20 cb 13 bf ba a0 8d bf
       -0.8776867 -0.8923041 -0.5773182 -1.1064675
000130 91 8a 4b 3f 9f a9 cd 3e 9a cf 13 3e 4f f3 2f bf
       0.7950831 0.40168473 0.14434662 -0.68730634
000140 87 37 b6 be 8d bb b2 bf e4 dd 98 bc 1b d6 89 3f
       -0.3558924 -1.3963486 -0.018660493 1.0768465
000150 27 ca d3 bf c6 3c 6c 3f ed ce 04 40 a8 ef 71 3f
       -1.6546067 0.9228023 2.0751297 0.9450631
000160 20 20 91 bf 6c 57 20 3f 61 9b 54 3f e2 f0 e5 be
       -1.1337929 0.62633395 0.8304959 -0.44910342
000170 1a 98 81 be 2e 26 27 3e b8 23 35 bf 20 dc 89 bf
       -0.25311357 0.16323158 -0.7075763 -1.0770302
000180 b1 1f 90 3e f3 1e 09 be 1b a8 82 3c 0e 88 ba bf
       0.2814918 -0.13390712 0.0159493 -1.457277
000190 7d a0 e6 3e 57 3d c3 3f 23 e0 33 3f 63 c4 34 3f
       0.45044318 1.5253094 0.7026388 0.7061216
0001a0 1b 06 08 3f 17 de 9c be 5f 1b d6 3e 5d 3a b0 3f
       0.53134316 -0.3063819 0.41817757 1.3767811
0001b0 cf 84 fe 3f b5 32 ee bf 70 e0 6e 3f 57 cd b0 bf
       1.988428 -1.8609225 0.93311214 -1.3812665
0001c0 fa 44 de be c3 03 33 3d 29 22 ca be 96 ac 65 3f
       -0.43412 0.04370476 -0.39479187 0.8971647
0001d0 bd 6e 61 3f eb 44 b7 bf 51 2b de 3e e4 7c 54 be
       0.880596 -1.4317907 0.43392423 -0.20750767
0001e0 12 b7 c2 3e 8e c8 82 3f fd 01 5b bf 7e 53 c3 3f
       0.38030297 1.0217454 -0.8554991 1.5259855
0001f0 4b 35 43 3f 2c 38 30 3f d0 0e 9d bf c9 20 e4 3e
       0.76253194 0.6883571 -1.2270145 0.44556263
000200 0b c1 81 bf 87 6d e9 3f c4 ce fc 3f d1 52 61 bf
       -1.0137037 1.823655 1.97506 -0.8801699
000210 5e 09 06 40 bc 5e 81 3e e2 a8 6a 3e 20 ef 98 bf
       2.0943217 0.2526759 0.22915986 -1.1947975
000220 df 96 05 bf 5c db 6b be 3c 05 95 be b7 0e b1 bd
       -0.52183336 -0.23032898 -0.29105556 -0.08645385
000230 95 56 81 3f 8a c3 15 3e 19 47 aa bf 60 91 83 3e
       1.0104548 0.14625373 -1.3302947 0.2569685
000240 0f 24 cf 3e 50 d0 d8 be a0 0b 1d 3f 94 a7 bf bf
       0.40457198 -0.4234643 0.61345863 -1.4973016
000250 c7 df 40 3f ba c6 e6 bd d6 90 df 3b ba f2 7b bf
       0.7534146 -0.11268373 0.0068226857 -0.98417246
000260 97 1f a5 3f 96 2d 02 40 9c 6f b4 3d aa 7b a8 bf
       1.2900265 2.0340323 0.0881035 -1.3162739
000270 47 aa 2e bf 0f f2 3d bd d5 61 43 bf e4 26 db 3c
       -0.6822857 -0.046373423 -0.76321155 0.026751943
000280 82 d6 12 3e ca 4f a2 be 61 a9 81 be 47 3e 43 3f
       0.1433964 -0.317015 -0.25324538 0.762669
000290 61 b2 aa bf 71 7c c2 bf bc 62 a5 3e 10 79 06 3f
       -1.3335687 -1.5194227 0.3230189 0.52528477
0002a0 79 ff c9 3d 15 82 9b 3e 25 98 24 bf 7e b9 d1 be
       0.09863181 0.30372682 -0.64294654 -0.40961832
0002b0 50 71 d0 3d 9b 98 98 3e 2c b5 1f be ec 83 ce 3f
       0.10177863 0.2980393 -0.15596455 1.6134009
0002c0 a5 96 50 3e d5 43 f1 be 98 9d 14 40 31 07 eb be
       0.20369966 -0.47122064 2.3221188 -0.45903924
0002d0 c4 ef 92 be 57 6a 6f bf 0a d0 b2 bf 9b ef 50 3f
       -0.28698552 -0.93521637 -1.3969738 0.8161561
0002e0 e7 0d f6 bd 9c 37 55 bd e1 73 5a bf b5 0f 69 3f
       -0.120143704 -0.052054986 -0.8533307 0.9103959
0002f0 c8 c7 02 bf 8e ac a5 bf 1b 1a ec 3e 32 d1 ae 3d
       -0.5108609 -1.2943285 0.46113667 0.085359946
000300 9d f8 fb 3e 3c b9 00 bf 6d 04 8f 3e 5a 90 7a bf
       0.49213114 -0.50282645 0.27933064 -0.97876513
000310 b9 9c 37 3e be 6a 00 be 88 6f 9f bf 12 79 ed be
       0.17930879 -0.12540719 -1.2455912 -0.46381432
000320 63 ed 51 bf 99 f2 94 3e 60 ee 02 3f 74 5c 0d bf
       -0.8200285 0.29091337 0.5114498 -0.552192
000330 b6 02 5f 3f b5 d8 4c bf b3 41 da be 15 6d c0 3b
       0.8711351 -0.8001817 -0.4262825 0.0058723786
000340 97 ed 6d be e7 08 65 bf d7 70 3a 3e 21 54 37 bf
       -0.23235165 -0.8946671 0.18207107 -0.71612746
000350 b3 91 f0 3e e4 36 a0 bf 94 f5 56 3f 25 48 4f bf
       0.4698616 -1.2516751 0.8396847 -0.8096946
000360 f1 1e 13 be 47 12 cb 3e 05 b6 9f 3f 6e 05 13 bf
       -0.14367272 0.39662382 1.2477423 -0.5743016
000370 50 46 8e 3e 32 1b 80 3f d7 19 23 3f 52 5f 1c bf
       0.2778802 1.0008299 0.63711303 -0.6108295
000380 3d 59 85 bf 10 59 d7 3f 12 42 b4 3d 35 91 0e c0
       -1.0417858 1.6824055 0.088016644 -2.2276127
000390 31 e1 10 3f 8d e0 ea be 48 b7 02 3f 9e 46 1e 3d
       0.56593615 -0.45874444 0.51060915 0.038641565
0003a0 ff ac 86 3f 9f 88 b8 bd c8 54 0a 3f a4 ac 3e 3f
       1.0521544 -0.090104334 0.54035616 0.7448218
0003b0 6d 3a 14 bf 55 36 18 3e b7 14 74 3e 25 8c e9 3e
       -0.5790165 0.14864476 0.23836027 0.45614734
0003c0 bb b0 d9 bf a6 0b 73 3e 0d 22 7e 3f 30 0d 96 3e
       -1.7007059 0.23734912 0.9927071 0.29306936
0003d0 ad 43 36 be 69 88 25 3d 06 5d 22 3f 76 6c dc 3f
       -0.17799254 0.040413294 0.6342319 1.72206
0003e0 8d 7b 84 3f 9d fa cd 3e 61 52 95 3d d9 00 d1 3e
       1.0350205 0.40230265 0.07291103 0.4082096
0003f0 1d 4e 87 bf 62 60 7c 3f f6 1f 2c bf 5f b0 12 c0
       -1.0570713 0.9858457 -0.6723627 -2.2920148

embedding_outside.weight f4 [1889, 2]
000000 3a d3 b6 3e 94 a0 9a 3f d9 1e 0a bf 53 4d 47 3f
       0.35708028 1.2080255 -0.5395332 0.7785236
000010 aa a0 c0 bf b1 56 44 bf ec 08 8b 3f 8f f2 6b 3e
       -1.5049031 -0.7669478 1.0862098 0.23041748
000020 23 b8 06 3d 2a b5 8b bf 6d 7a 22 3f 11 e7 cd bd
       0.03289045 -1.0914662 0.63468057 -0.10053838
000030 a2 f2 b1 bd 16 c3 6d bf 6b 47 9a be d0 a5 69 3f
       -0.08688857 -0.928758 -0.30132613 0.91268635
000040 34 57 bc bc 0b 4c 98 3e f7 b9 e4 3f 40 fd 0f bf
       -0.0229908 0.29745516 1.7869252 -0.56245804
000050 b0 03 57 3b be 30 e4 bd ab 9c 62 bf 46 29 d8 bf
       0.0032808594 -0.11142109 -0.88520306 -1.6887596
000060 db 15 0c be b1 3d d2 3e 45 c6 ec 3e ec 08 a6 3f
       -0.13680212 0.41062692 0.46245018 1.2971473
000070 00 3e f0 3e d4 6f 4a 3c 34 aa 18 be ed f9 95 3d
       0.46922302 0.012355763 -0.14908677 0.0732306
000080 bc 5f c6 3f fe b3 a8 be 86 03 dd 3f 71 40 5b bf
       1.5497966 -0.32949823 1.72667 -0.85645205
000090 3e d3 8a bf 3e 46 a8 3e 02 34 b4 3d b2 5e a7 3f
       -1.0845716 0.3286609 0.08798982 1.3075774
0000a0 c1 8a c7 be bc 3d 52 bd 86 f7 39 bf c2 9b 93 bf
       -0.38973048 -0.051328406 -0.72643316 -1.1531909
0000b0 1a 15 e4 be b9 dd d1 bf 65 94 aa 3e aa e9 7a be
       -0.4454735 -1.6395789 0.3331634 -0.24503198
0000c0 5b 98 cf 3f ff 97 8d be 4f 83 00 bf b6 5e 8e be
       1.621837 -0.27655026 -0.5020036 -0.27806634
0000d0 56 01 13 40 0a 5f d0 be ea bf c6 3f d3 1a 3a 3e
       2.2969565 -0.4069751 1.5527318 0.18174295
0000e0 34 27 a3 be 1e 13 9b 3e 9d cf b4 3e 58 e7 82 3e
       -0.31865847 0.30288023 0.35314646 0.25567126
0000f0 fd 42 52 be 76 10 ac 3e 22 97 7e bf 54 c9 8c be
       -0.20533367 0.3360631 -0.9944936 -0.2749735
000100 eb 14 42 40 ca cb ce bd 21 4a 27 bf 95 9a 86 bf
       3.0325267 -0.100974634 -0.65347487 -1.0515925
000110 e9 25 e6 bf 1a 18 cc 3f 5e 8e d1 3c 8b ab fe bf
       -1.7980319 1.5944855 0.025580581 -1.9896101
000120 1b 0e 92 be 09 bf 28 bf 63 8e 96 3f 3a 0f 0a 3e
       -0.28526387 -0.65916497 1.1762203 0.13482371
000130 e9 65 10 3f f6 dc 82 be 05 3c a9 bf 7d 4f a9 bc
       0.564055 -0.25559205 -1.3221442 -0.020667786
000140 b8 38 fb 3e 9f 9a 03 40 a9 dc 05 bf 0d 3c 10 3f
       0.4906671 2.0563123 -0.52289826 0.5634163
000150 3a e4 59 3e d8 9b e7 3e 37 35 30 be 75 4a bf 3f
       0.21278468 0.45236087 -0.172078 1.4944597
000160 04 be e3 3e 69 c6 c9 be 12 c7 65 3e ac 72 e0 3f
       0.44480908 -0.39409187 0.2243922 1.7534995
000170 79 06 f2 3f e2 fc 0a bf 03 aa 50 bf a3 66 06 bf
       1.8908225 -0.5429212 -0.8150942 -0.5250036
000180 83 be 43 bf e0 db b8 3e 7d 19 c1 bf d8 ef a5 3f
       -0.7646257 0.3610525 -1.5085903 1.296382
000190 3d fa 4a 3f 11 62 38 bf 34 7a 86 3f 24 3e 70 3f
       0.79288083 -0.7202464 1.0506043 0.9384482
0001a0 04 17 f9 be 4b 31 49 bf 63 8d c1 3e 7f 78 53 3f
       -0.48650372 -0.7859084 0.37803182 0.8260574
0001b0 e1 75 35 bf 95 9a 4e 3f 42 0b da bc 5d b6 96 bd
       -0.70882994 0.80704623 -0.026616696 -0.07359002
0001c0 60 5a d2 3e bd 3b d1 bf 4e 5f 0d 3d 05 bd 18 bf
       0.41084576 -1.6346356 0.034514718 -0.5966342
0001d0 1e 5f 96 3d 04 83 14 3e b2 5c 8f 3e 3f 98 22 3f
       0.07342361 0.14503103 0.28000408 0.6351356
0001e0 4c 74 b5 be 34 8b 84 3f 5f c9 07 3f 5f d2 a0 3f
       -0.3544029 1.0354981 0.5304164 1.25642
0001f0 ae d1 53 bf 73 f6 fd 3d 47 41 f5 3e 3e 4e 0a c0
       -0.8274182 0.12400522 0.47901365 -2.1610255
000200 f6 69 34 bd 7c ce 92 3e 3e 97 f8 3e ce 3c 8a 3f
       -0.044046365 0.2867316 0.4855289 1.0799806
000210 b8 8d f9 3e 11 6b 64 bf 8f 87 ca 3f 8c 6b be bf
       0.48740935 -0.8922587 1.5822619 -1.4876571
000220 d7 10 c7 bf 6e 98 f5 be d1 33 31 bd 24 71 f5 bf
       -1.5552014 -0.47967857 -0.043262307 -1.9175153
000230 78 d9 f7 3e 1b f1 ab 3f c7 86 fb 3d 1d ab 64 3e
       0.48408103 1.3432955 0.12281566 0.223309
000240 92 c5 65 bf 1b 1a a9 3e bf 40 aa bf be 46 95 3f
       -0.89754593 0.3302773 -1.3301009 1.1662214
000250 45 bf c0 3f 49 e9 86 bf 4d cf 09 3e 3b 55 97 be
       1.5058371 -1.0539943 0.13457985 -0.29557213
000260 69 eb b2 be 16 2a 92 be a2 2d b1 3e 0a d6 33 be
       -0.3494523 -0.28547734 0.34605128 -0.17562118
000270 6d d5 11 bf cf 76 86 bf c0 bc aa 3e 22 e8 a7 bc
       -0.56966287 -1.0505008 0.3334713 -0.020496432
000280 c8 91 c8 ba 85 2d 71 3d 65 5b c4 be c2 0a 8e bf
       -0.0015302235 0.0588813 -0.38350978 -1.1097033
000290 e6 47 e0 be 22 1c 94 be 42 bd b5 3f f2 62 c8 3e
       -0.43804854 -0.28927714 1.4198382 0.3913799
0002a0 21 65 e1 3e cb 85 7a bf c4 ff df 3e 76 7e c1 bd
       0.44022468 -0.978604 0.4374982 -0.09447949
0002b0 6b 89 45 bf 64 b4 5f 3e ad cb 16 3f e4 8c aa 3f
       -0.7716281 0.21846157 0.58904535 1.3324246
0002c0 c1 48 33 c0 05 42 d9 3f df 40 0f bf 02 84 b4 be
       -2.8013155 1.6973273 -0.5595836 -0.35256964
0002d0 09 f6 13 c0 27 6c 65 bf e4 ba e7 bc cc 30 5b bf
       -2.3118918 -0.8961815 -0.028287359 -0.85621333
0002e0 b8 f7 15 bf 29 e0 b8 be 03 04 a7 bf 1e ae ee bf
       -0.58581114 -0.3610852 -1.3048099 -1.8646886
0002f0 98 0c b9 bf 0e 56 25 3f b8 30 43 c0 ba d6 00 3f
       -1.4456968 0.64584434 -3.0498486 0.50327647
000300 c5 9f fc 3d c8 37 c9 bf 8e 46 88 3f c1 de b5 3e
       0.12335161 -1.5720148 1.0646532 0.3552151
000310 5f 3a 40 3e 9d e1 fb be a4 db bc 3f d0 1a 7c bd
       0.18772267 -0.49195567 1.4754529 -0.061549008
000320 14 95 62 bf 1f 85 be be 79 ea 77 bf bf 99 cf be
       -0.88508725 -0.37210938 -0.9684215 -0.40546986
000330 8b 9e 0b 3f ec 9b d2 3e 4a e1 68 bf 68 88 1d c0
       0.5453879 0.41134584 -0.90968764 -2.4614506
000340 bb 12 af 3f 50 9d a9 bd 4f d9 38 3d 75 8b 24 bf
       1.3677591 -0.08281958 0.045129117 -0.64275295
000350 e4 91 66 bd fd a8 b4 3f 9a 94 d1 3d 0b 76 d9 bd
       -0.056291476 1.4114071 0.102334216 -0.10618218
000360 bf 52 e1 3d 9e 2c 79 bf 2a 37 3a bf 72 66 7d 3f
       0.11002111 -0.97333705 -0.72740424 0.98984444
000370 b9 3a 08 40 d1 93 21 c0 3e 7a 43 bf c2 09 4c bf
       2.1285841 -2.524647 -0.763584 -0.7970239
000380 26 84 09 bf 1c ef 91 3f 59 f5 25 3e 8a 76 46 3f
       -0.5371727 1.1401095 0.16206874 0.77524626
000390 44 8e 01 bf 40 cb 38 be 06 59 3c 3f 79 81 87 be
       -0.50607705 -0.18046284 0.7357334 -0.26465967
0003a0 9c 0c 27 bf 3c 7b c7 3f b8 08 84 bf 6b 40 85 3f
       -0.65253615 1.5584483 -1.0315161 1.0410284
0003b0 45 97 c0 be 12 31 8b 3f b3 d7 2f 3f 1f da 13 be
       -0.3761541 1.087435 0.68688506 -0.14438675
0003c0 a8 06 94 bf 88 f8 53 3f 2a 1c 0a be f8 96 46 3f
       -1.1564531 0.82801104 -0.13487306 0.7757411
0003d0 40 59 8e 3e 8d cd 84 3f 2e 83 3e 3f fc 68 33 bf
       0.27802467 1.0375229 0.74418914 -0.7008207
0003e0 c9 c8 5d 3f d4 7e 40 3f e7 4f ca bb 66 7b 91 bf
       0.866345 0.75193524 -0.006174076 -1.1365783
0003f0 ac 46 98 bf 06 4b 9a 3f 3e 73 b4 3f 13 20 b7 3f
       -1.1896567 1.2054145 1.4097669 1.4306663

v_bias.weight f4 [1889, 1]
000000 f3 af a8 3e e3 c6 d1 be 92 26 ba 3e e6 8e 0f 3d
       0.3294674 -0.4097205 0.36357552 0.035048388
000010 42 21 e0 be 3a 65 fc 3f a9 8b 03 40 53 fa f7 3e
       -0.43775374 1.9718392 2.0553992 0.4843317
000020 67 6c cc 3e 3d dc 93 bf 7f 8d 63 be 5b 99 a3 be
       0.39926454 -1.1551586 -0.22221945 -0.31952938
000030 8c e9 8b 3f fa 98 8f be 66 6c 88 3d 5b 5b 95 3f
       1.0930648 -0.280464 0.066613 1.1668504
000040 64 ba d9 bf 47 e4 71 bf 3f 13 c9 bf 9d b5 7a 3f
       -1.7010007 -0.9448895 -1.5708998 0.9793337
000050 5e a9 40 be 46 7a 3c 3d 98 90 91 bf f1 bf e8 3e
       -0.18814608 0.046015047 -1.1372252 0.4545894
000060 b9 4a cf 3f eb ba 32 3f 17 1a 9b be 9c 7f 42 3f
       1.6194679 0.69816464 -0.30293342 0.75975966
000070 92 95 dc bd 35 57 a4 3f 0d f0 34 bf 81 e9 9c 3c
       -0.10770716 1.2839113 -0.7067879 0.019154312
000080 91 23 6b 3e 61 4c 04 c0 e5 15 be bd 03 11 8c 3f
       0.22962786 -2.0671618 -0.0928152 1.0942692
000090 e2 4b c3 be 2a e5 91 3f c0 65 10 be 10 6f c1 bc
       -0.38143831 1.139806 -0.14101315 -0.023612529
0000a0 07 87 f8 be e9 5f 8b 3f d6 a8 18 3f 7d 63 b4 3f
       -0.48540518 1.0888644 0.59632623 1.4092861
0000b0 dc 64 cc 3d 76 40 42 3f 8e 24 78 3e 14 df 96 bf
       0.09980175 0.7587961 0.24232695 -1.1786828
0000c0 21 e5 50 3f 26 a0 ec 3e 3f d0 d9 3f c5 18 90 bf
       0.8159962 0.46215934 1.7016677 -1.1257559
0000d0 a8 5c ad 3d 5b b2 1c 3f 69 12 95 bf 31 dc 0b 3f
       0.084649384 0.6120965 -1.1646243 0.5463286
0000e0 c9 3a 4f bf 54 34 a2 bf cf 19 24 bf 5e 27 bf 3f
       -0.80949074 -1.2672219 -0.6410188 1.4933889
0000f0 8f 95 ec bf 63 93 63 3c 62 45 de 3d 4f 5a 86 bf
       -1.8483142 0.01389012 0.108530775 -1.049631
000100 53 2f b6 be 52 f2 94 be 4e 93 ec 3f 08 ac 29 3f
       -0.3558298 -0.29091126 1.8482454 0.66278124
000110 cb 97 a4 3e e3 41 19 bf 8b ea ed 3f 68 f6 c5 3e
       0.3214706 -0.5986616 1.8587202 0.38664556
000120 86 53 c1 3e 69 fc f6 3f fe 8a 0c 3e 55 55 5a 3f
       0.37759036 1.929578 0.13724896 0.85286456
000130 34 70 1e 40 f1 7f 24 3f df b4 20 bc ce fc 83 bf
       2.4755983 0.64257723 -0.009808748 -1.0311525
000140 ad fa 8b be d4 ef f5 be e9 3e db be 75 e5 af 3f
       -0.27339688 -0.48034537 -0.42821434 1.37419
000150 20 68 e5 be 37 24 a9 3e 89 6b 9f 3f 1e c2 31 bd
       -0.44806004 0.33035442 1.2454692 -0.043398015
000160 5c 16 1f 3f 31 9c c1 bf 55 e6 0f bf df 7b 19 3f
       0.6214349 -1.5125791 -0.56210834 0.5995464
000170 c1 1a 31 be 90 13 da bf 57 2d ba 3e 0b ee 61 bf
       -0.17295362 -1.703722 0.36362717 -0.8825385
000180 81 ea 32 bf 99 9a 26 3f 99 f3 89 be e3 8d 76 3e
       -0.69889075 0.6507965 -0.26943663 0.24077563
000190 e2 07 69 3f 7d d9 f2 3e a7 f9 bb bf 80 0d fe be
       0.91027653 0.47431555 -1.4685563 -0.49619675
0001a0 ae d2 3c bf da ec 4c 3f 0c c3 25 bf 7d d8 f3 be
       -0.7375897 0.80048907 -0.6475074 -0.47626105
0001b0 92 c5 90 bf fe 90 dd 3d 9d 5a 93 3f 1c a7 b9 bd
       -1.1310294 0.10818671 1.1512028 -0.09065077
0001c0 7b a2 77 3e 76 7e 0b 3f bd dd a3 3f 6b db 11 3d
       0.24183075 0.5448984 1.2802044 0.035609644
0001d0 0b d7 0d bf b1 9d b3 3f 59 6f 49 3f 91 ed f4 3f
       -0.55406255 1.4032499 0.7868553 1.9135
0001e0 28 fd 03 40 21 77 c0 3e ce 21 3e bf 5d 8b b5 3f
       2.0623264 0.37590888 -0.7427033 1.4183155
0001f0 25 32 16 3d ba 3c cd 3f 62 22 dd 3e 62 ee 81 3e
       0.036668915 1.6034157 0.43190295 0.25377184
000200 e6 27 06 bf b6 d5 04 3f de 0f 88 3e ee 38 76 3e
       -0.5240463 0.51888597 0.26574606 0.24045154
000210 71 a5 76 3e e6 e6 8e 3e 7c dc 59 bf 93 f0 f0 3f
       0.24086548 0.27910537 -0.8510206 1.8823417
000220 28 f6 aa 3e 74 e1 70 3f 56 c9 78 be 08 2e 02 bf
       0.33390927 0.94094014 -0.24295554 -0.5085149
000230 0c 64 c6 be fa ec 16 bf 71 cd 95 bd 97 fc 4c 3e
       -0.38748205 -0.5895535 -0.073145755 0.2001823
000240 83 9c 47 bf 61 a1 41 bd b8 3a f5 be ea a3 d0 3e
       -0.7797319 -0.047273044 -0.4789636 0.40750057
000250 c4 b1 57 3e 4c ff 9d 3f f1 ae 03 bf d7 7e 31 bf
       0.21063906 1.2343535 -0.51438814 -0.6933417
000260 10 ea 4b bf 36 8c a1 be 63 df 8e 3f 03 64 85 3f
       -0.79654026 -0.31552285 1.1161922 1.0421146
000270 b1 43 81 3e cf 04 7c 3f 8c b2 2b 3f 04 1f c6 be
       0.25246957 0.9844484 0.67069316 -0.38695538
000280 4c a9 5c 3f 2b ac 68 3f 97 b1 a4 3f 52 64 30 be
       0.86195827 0.9088771 1.2866696 -0.17225769
000290 2e 85 84 3e 59 a8 d0 3d 08 f1 e6 bd 7b 23 da 3e
       0.25882858 0.1018836 -0.11276442 0.42605194
0002a0 bf ad 87 3f bb 3a 2d bd 7d a5 86 bf 5a 1d 3d 3e
       1.0599898 -0.042292338 -1.0519253 0.18468228
0002b0 46 73 c0 be 48 ce 82 3f 69 bf f9 3f 9b 6c 8c 3e
       -0.37587947 1.0219202 1.9511539 0.2742661
0002c0 a1 2a d3 3d de 2d 23 3f 2a 79 a9 bf c1 32 9b 3f
       0.10310865 0.6374186 -1.3240101 1.2124864
0002d0 cc d9 2f 3d 31 73 24 3f 96 48 e3 3f 2a 79 95 3f
       0.042932317 0.6423827 1.7756526 1.1677601
0002e0 84 a5 65 3f 26 f2 bf 3f 94 9b 66 3f 27 03 27 bd
       0.8970568 1.4995773 0.90081143 -0.04077449
0002f0 c1 0e 27 3f a3 a9 13 c0 87 64 c5 be f6 11 37 be
       0.6525689 -2.3072288 -0.3855326 -0.17877945
000300 3b 15 c2 3f 67 de 07 3f ab 44 bb 3f 7d 26 b5 3f
       1.5162729 0.53073734 1.4630331 1.4152371
000310 7f f2 38 be cb 45 52 be f2 a0 1a bf a1 98 ab 3f
       -0.18061255 -0.20534436 -0.60401833 1.3405954
000320 e4 51 12 bc 7e 32 8e 3e 88 f4 03 bf 1d d7 7e be
       -0.008930657 0.27772897 -0.51545 -0.24886747
000330 73 fc f9 be 56 9f 71 3f ec 34 b0 3d 6d b6 bd 3e
       -0.48825416 0.9438375 0.08603844 0.37053242
000340 d0 b8 c2 be 89 8b 1f 3f 23 4b 92 bf ae e0 92 3f
       -0.38031626 0.6232229 -1.142918 1.1474817
000350 8f 2d e6 3e 6a 3c 5c 3d fe 21 a3 be 68 e6 35 3f
       0.44956633 0.053768553 -0.3186187 0.710547
000360 d3 62 87 3f d1 84 6c 3f 21 30 06 be d9 00 81 3f
       1.0577034 0.9239016 -0.13104297 1.0078384
000370 f2 e3 43 3f 2e b4 40 bf dd 84 71 bf e4 fa 99 3e
       0.7651969 -0.7527493 -0.9434336 0.30074227
000380 93 cb 8d bf 20 1b 6f bf 81 de 8c 3f ae 7a a1 be
       -1.1077751 -0.93400764 1.1005403 -0.3153891
000390 2b 33 db 3e 70 62 17 40 62 d7 73 3f dd 63 94 3f
       0.42812476 2.3653831 0.95250523 1.1592976
0003a0 ee 4e d8 3e 44 0b 46 be 9b ca 41 bf 0c 41 eb bf
       0.4224772 -0.19340235 -0.75699776 -1.8379226
0003b0 c6 7b 64 bf 0e 7f 17 3d 27 16 e9 3f 27 a8 ac be
       -0.89251363 0.036986403 1.8209885 -0.3372204
0003c0 70 23 ab bf 87 eb c6 3f d9 19 01 3f 55 73 59 3d
       -1.337019 1.5540627 0.50430065 0.053088505
0003d0 9e 6a ef 3e c8 24 36 3f 67 f8 23 3e 72 e0 29 40
       0.4676103 0.71149874 0.16012727 2.654324
0003e0 f6 dd 47 3e 01 a8 18 bf fc 2c 05 40 a9 ce 99 bf
       0.19518265 -0.59631354 2.0808706 -1.2016193
0003f0 91 c2 d1 3f 18 0d 7e bf 8c 9b 71 3f f3 4d 93 be
       1.6387502 -0.9923873 0.9437797 -0.28770408

u_bias.weight f4 [1889, 1]
000000 40 54 fd 3e fa 27 ed 3e f8 86 5c bf 1a 39 86 bd
       0.4947834 0.46319562 -0.86143446 -0.0655386
000010 bc 7e 9b 3f c5 ef 80 bf 39 98 9b 3e 58 2b 6c be
       1.2148051 -1.0073172 0.30389574 -0.2306341
000020 eb 64 35 bf 8a ba cc 3e 09 ab 17 3e 1f c7 b9 3f
       -0.70857114 0.39986068 0.14811338 1.4513892
000030 1d bc 05 be c9 a1 00 be a9 80 46 3f e1 e2 36 bf
       -0.13060041 -0.12561716 0.7754007 -0.7143994
000040 c1 43 47 3f e5 c8 a5 3f b3 f9 6e bf a6 63 80 3e
       0.7783776 1.2951933 -0.9334976 0.25076026
000050 84 a6 49 3f 88 e7 c6 3e a9 51 a5 3e 22 2a f6 bf
       0.7876971 0.3884852 0.32288864 -1.9231608
000060 4d 14 6d 3f e4 3b 5c 3f 95 c5 b9 bf 1e 50 8d 3f
       0.926091 0.86028886 -1.4513422 1.1040075
000070 f7 91 90 3f 17 d0 28 3f d7 90 a5 3f 99 0d 63 3f
       1.1294545 0.6594252 1.2934827 0.88692623
000080 9e 69 03 be 1f a8 f9 be 5c bc 8a bf ca d7 c0 3f
       -0.12833259 -0.4876108 -1.0838733 1.5065854
000090 60 bb 32 3f ea e5 da bf 61 95 a1 bf 8c 4e 72 bf
       0.6981716 -1.7101414 -1.2623712 -0.94651103
0000a0 bc ff 01 3f 2c 05 60 3e 65 d7 22 3e 99 5a b4 be
       0.50780845 0.21876973 0.15902479 -0.3522537
0000b0 cc 73 aa 3e 86 e4 6d be 29 8a 76 bf ae be 42 3f
       0.3329147 -0.23231706 -0.96304566 0.76072204
0000c0 06 a8 48 bd 2e b7 4a 3f 36 a5 2e 3f e4 ca aa bf
       -0.048988365 0.7918576 0.6822084 -1.3343167
0000d0 a6 1c b9 3e cf 9c ad be b2 10 34 bf aa e2 ee be
       0.3615467 -0.33908698 -0.70337975 -0.46657306
0000e0 e7 31 1b bf 59 53 17 3f 67 bb de be 66 0d 55 be
       -0.6062302 0.59111553 -0.43502352 -0.20805892
0000f0 36 73 0e 3f 12 44 52 be 6b fc e6 be cb 9f 9b be
       0.5564455 -0.2053378 -0.45114455 -0.3039535
000100 1d e0 10 bf a4 ed 76 be 8e 10 25 bf 7e 77 5a bf
       -0.5659197 -0.2411409 -0.64478385 -0.8533858
000110 3f 10 9a bf 1c b5 dc 3f 2c 6e d9 3e 26 ae 53 3f
       -1.2036208 1.724277 0.42466867 0.82687604
000120 f0 61 0f be 42 73 64 be ea 83 16 bf ea f5 4e bf
       -0.14002204 -0.22309592 -0.58795035 -0.80843985
000130 84 d1 7e 3f 48 aa f8 be 97 56 06 3e a2 4c 6a bf
       0.99538445 -0.48567414 0.13118969 -0.9152318
000140 68 e1 83 bf 1d f6 60 bf 12 11 3a 3f 7e b0 b1 3f
       -1.0303164 -0.8787554 0.726823 1.3881986
000150 b0 3c 98 3d 61 0e 0f 3f 23 fb 9a 3e b1 f5 8f bf
       0.0743345 0.55881315 0.30269727 -1.1246854
000160 08 89 8e 3f 4b 58 5d 3f 84 ce ab bf f8 f5 6d 3e
       1.1135569 0.8646285 -1.3422399 0.23238361
000170 8f b8 89 be be d7 1e bc 1d 8d d9 3f 3e 88 d2 bf
       -0.2689862 -0.009694992 1.6996189 -1.6447828
000180 21 63 46 be c6 ee 37 3f 52 b7 91 bd b5 41 af be
       -0.19373752 0.71848714 -0.07115044 -0.34229818
000190 69 38 9e 3f 86 8d 92 3d 90 c8 04 3e b8 c1 ac 3f
       1.2360965 0.071559 0.12967134 1.3496618
0001a0 21 50 95 3f cd 16 72 3e e6 4e d6 bd 97 36 46 3f
       1.1665078 0.2364151 -0.104642674 0.7742705
0001b0 d4 a8 9b 3e 34 13 51 bf 12 f1 fc 3f c7 4f 5f bf
       0.30402243 -0.81669927 1.9761069 -0.87231106
0001c0 2c 82 b4 bd f7 b7 f7 bf 58 48 26 40 1c 61 88 3f
       -0.08813891 -1.9353017 2.5981655 1.0654635
0001d0 cd 57 0a bf 0b b8 f5 bf 30 ba ee 3e e1 37 ac 3f
       -0.54040223 -1.919679 0.46626425 1.3454553
0001e0 cb af 49 bd b4 39 c7 3f 7a fe b2 bf 39 66 28 bf
       -0.049239915 1.5564485 -1.398391 -0.6578098
0001f0 2a f6 79 3e 93 b6 d2 bf 98 1e 14 3f a7 57 08 3f
       0.2441031 -1.6461967 0.5785918 0.53258747
000200 17 74 5a 3f 26 16 6a 3f 0a 71 50 3f 90 df 1e c0
       0.8533339 0.91440046 0.81422484 -2.4823952
000210 29 1b 38 3f 69 5c dc 3d e3 05 da bd 61 08 da 3e
       0.71916443 0.10759813 -0.10645654 0.42584518
000220 65 14 9d 3f 4f 59 7e 3f e8 bd 2f be b1 28 d9 bf
       1.2271849 0.99355024 -0.17162287 -1.6965543
000230 a0 5f f7 3d c4 b8 fb 3e e0 15 5f bf 2a a4 23 3f
       0.12078786 0.49164402 -0.87142754 0.6392237
000240 d6 98 43 3f c5 01 e0 3f b6 4b 84 be 86 4b 69 3f
       0.76405084 1.750054 -0.25839013 0.91130865
000250 3a ca 0e 3f 87 85 a3 3f d0 08 78 3e 2b 34 9d be
       0.55777323 1.2775124 0.24222112 -0.30703864
000260 1f 5d 6c 3e b2 42 32 bf ae 60 5d 3e 44 57 80 be
       0.23082398 -0.6963302 0.21618912 -0.25066578
000270 a5 5d c5 3f d3 ee 96 bf c2 ab 96 3e 8b a9 a0 bf
       1.5419203 -1.1791633 0.29427916 -1.255174
000280 a5 82 20 3f 7f 5c 38 bf 26 4c f2 3e 79 32 93 bf
       0.6269935 -0.7201614 0.47323722 -1.1499778
000290 1c 01 e7 3f 91 b7 ec 3d 3f 50 5a 3f a3 5b 8c 3e
       1.8047214 0.1155845 0.85278696 0.27413663
0002a0 b3 1b 80 3b e8 f9 1a 3e f0 c0 10 3e af bf 1a c0
       0.003909552 0.15134394 0.141361 -2.4179494
0002b0 bd 3c 87 bf 6f 4f 15 3f dd 65 ee 3e e8 70 0c bd
       -1.0565411 0.5832433 0.4656209 -0.034287363
0002c0 ad d7 a2 3f 00 90 47 be ac c6 86 bf a7 e6 49 bf
       1.2722069 -0.19488525 -1.052938 -0.7886757
0002d0 b8 c9 53 be 5b ca a5 3f 8f de 5d 3f a3 21 05 3f
       -0.20682418 1.2952379 0.8666772 0.5200445
0002e0 97 f4 85 3e cb 5d 8d 3e c9 a3 49 3f ee 81 fc 3e
       0.2616317 0.2761062 0.7876554 0.49317878
0002f0 18 6a aa 3e 12 99 fa 3e 64 d3 4c bf d2 77 a8 3f
       0.33284068 0.48944908 -0.80010056 1.3161566
000300 88 17 59 3d c2 49 47 3f 23 4f 13 bd 3b 99 63 bf
       0.053000957 0.7784692 -0.035964143 -0.88905686
000310 2c 5f cd bf 2e 6e ae bf f6 e9 80 bd 04 65 a1 3f
       -1.6044669 -1.3627374 -0.062946245 1.2608953
000320 ca b6 a0 3e 01 fe fc 3e ad ab be 3d b4 0b 86 3f
       0.31389457 0.4941254 0.09310088 1.0472322
000330 c4 9f d2 be 55 19 d9 3f 9f 7f 2b bc 63 f7 93 3f
       -0.41137516 1.6960856 -0.010467439 1.1559871
000340 14 88 36 be 6e 55 6e bf 77 a3 40 bf 0e 32 6b 3e
       -0.17825347 -0.93099105 -0.7524943 0.22968313
000350 6f a3 63 3e 27 31 9e 3d 51 50 4b bf 97 54 08 3f
       0.22230314 0.07724219 -0.7941943 0.53254074
000360 ec 7b e4 be 4e 8b 67 3d 88 5c 26 3f 98 01 33 3f
       -0.44625795 0.056529336 0.6498494 0.69924307
000370 ed a6 82 bf 00 f8 e0 3e 37 61 e0 3f 31 0d 87 3f
       -1.0207192 0.4393921 1.7529668 1.0550901
000380 9c fc 3e c0 fa e4 ed 3e 14 1e 94 3e f3 65 ef 3f
       -2.984168 0.46463758 0.28929198 1.8702987
000390 17 61 14 3f 47 5b 87 3f 10 c8 6b 3f bb 7e 6e 3f
       0.5796065 1.0574731 0.92102146 0.93162125
0003a0 ef 57 7e 3f 96 6b a5 3f a2 f7 62 be ce 19 33 3f
       0.99352926 1.2923458 -0.22164777 0.6996125
0003b0 c9 7b 7a bf 2b 53 20 be 49 7a 88 3f dd 73 24 3f
       -0.9784513 -0.15656726 1.0662318 0.64239293
0003c0 fc ef fd 3e f6 8c 84 be d9 0c 44 bf 09 f5 d1 3e
       0.49597156 -0.25888795 -0.76582104 0.4100726
0003d0 c5 4d 18 c0 98 ed aa 3e 79 ef a7 3e 02 9c 00 40
       -2.3797467 0.33384395 0.3279989 2.009522
0003e0 2e c6 9f bf 80 29 e9 3e a5 2e 90 bf ee da b3 3f
       -1.2482355 0.45539474 -1.1264235 1.4051187
0003f0 f5 8f 0b bf 24 35 b6 3f ab ee a1 3e 5f 95 8c 3e
       -0.54516536 1.4234967 0.31627402 0.2745771
