model/skipgram_model.pth (torch, 32285 bytes, 2 tensors)

embedding_center.weight f4 [1889, 2]
000000 13 40 80 3f 44 69 1a bf 3d 3a 18 3f 7e c5 cd bf
       1.0019554 -0.6031687 0.59463865 -1.6075895
000010 74 6c 16 40 da 37 09 bf 6f 46 35 3f da 22 ff bf
       2.3503695 -0.5360085 0.708106 -1.9932511
000020 28 03 9a 3e da 71 92 be 2d f1 b3 bf af 9d 90 3e
       0.30080533 -0.28602487 -1.4057976 0.28245303
000030 8c 53 83 3f 0f 4e d7 bf 87 f2 88 be 1b df 7c 3f
       1.0259871 -1.6820697 -0.26747534 0.9877793
000040 38 77 22 3f 65 6b d8 be 7f 39 dc be af 3c 89 bf
       0.63463163 -0.42269436 -0.43012616 -1.0721644
000050 8f 72 9f bf 07 23 34 3f f2 d8 03 3f 68 a7 8d bf
       -1.2456836 0.7036595 0.5150291 -1.1066713
000060 5f fd 85 3f 26 15 09 3f cf a2 bf bf 62 08 d1 3e
       1.0467948 0.53547895 -1.497156 0.40826708
000070 71 52 82 bd ec 3b eb be 83 38 52 bf 0d fa ae 3d
       -0.06363381 -0.45944154 -0.8211748 0.08543787
000080 e0 ee 2a bf d1 04 15 3f e0 43 13 bf a9 06 02 3f
       -0.66770744 0.58210474 -0.57525444 0.5079141
000090 ca 43 dc 3e 60 00 43 bf 17 38 0a bf 66 4c 35 3e
       0.4302047 -0.7617245 -0.53991836 0.17704925
0000a0 15 ef aa bf ac c1 15 bf 50 5b 25 3e eb 2d 8b bf
       -1.3354212 -0.58498645 0.16148114 -1.0873388
0000b0 48 9f 39 bd 38 05 2a bf 1b 9b b1 bc bd c8 2e bf
       -0.045317918 -0.66414213 -0.021680405 -0.6827505
0000c0 5c 66 3a bf f5 f3 17 3f 18 69 d8 3e 56 cb 9e 3f
       -0.7281244 0.59356624 0.4226768 1.2405803
0000d0 97 40 19 3f 69 77 3e 3f 16 18 55 3f 0d 80 02 bf
       0.5986418 0.74400955 0.8323988 -0.5097664
0000e0 61 96 cc 3e 81 30 46 3e 5e a9 06 c0 ea bc 08 40
       0.3995848 0.1935444 -2.1040874 2.1365304
0000f0 ec cf 73 bf 5f 53 62 3f 57 e7 a6 3d 14 0f ca 3d
       -0.9523914 0.88408464 0.08149593 0.09866157
000100 bf 27 cb bf 0b ce 63 bf da 86 ac be 57 48 49 3f
       -1.5871505 -0.8898627 -0.33696634 0.78626007
000110 d9 7d 30 3f 0e c9 c4 3f 76 80 9f bf 0b 53 07 3e
       0.6894203 1.5373857 -1.2461078 0.13215272
000120 c6 78 91 3e 16 28 27 bf 19 3e 32 be c3 98 cf 3e
       0.28412455 -0.6529554 -0.17406501 0.40546235
000130 b5 04 67 3f d8 37 ba bf e8 25 00 3e ff b2 58 bf
       0.9024156 -1.4548292 0.1251446 -0.84648126
000140 87 b8 db bf 32 39 45 be f2 de b5 bd 07 03 3b 3f
       -1.7165688 -0.192601 -0.08880414 0.73051494
000150 98 45 a9 bf ff 41 db 3e 85 ee 50 3e a8 81 b4 3d
       -1.3224363 0.4282379 0.20403488 0.088137925
000160 9d 7f ec be 31 ac 8a 3f c2 32 1b be 1d a5 b3 3f
       -0.4619111 1.0833799 -0.15156081 1.4034764
000170 4b ec 50 be 87 ee 51 bf c5 43 c9 bf bf 92 f6 bf
       -0.20402639 -0.8200459 -1.5723807 -1.9263533
000180 5d f6 18 bd 1b 34 a6 3f 31 f5 74 3f a9 9a 0c 40
       -0.037344325 1.2984651 0.9568663 2.1969397
000190 21 35 18 bf 73 4b a4 3f 84 1a 55 bf a7 c4 00 40
       -0.5945607 1.2835525 -0.83243585 2.0120027
0001a0 87 01 83 3f 7f d3 a4 bf cb a1 c0 3f a0 66 96 3f
       1.0234841 -1.2877043 1.5049375 1.1750069
0001b0 03 65 9c 3d b1 45 95 3f 7b 1b bc bf 08 9c 49 bf
       0.07636454 1.1661893 -1.4695886 -0.7875371
0001c0 ad cf 5c bf 0f 53 3f bf 6c 2a d2 bd 84 d3 e4 3f
       -0.8625439 -0.7473611 -0.102619976 1.787705
0001d0 01 ea e4 be e9 a0 d1 bf a1 28 e2 3f fe 99 ad 3e
       -0.4470978 -1.6377231 1.7668649 0.3390655
0001e0 3d 97 05 3f c1 17 2c be 5a 73 85 be 2c 5a 81 3f
       0.52183896 -0.16805936 -0.2606457 1.0105643
0001f0 e7 f0 dc 3f 82 3b a2 be bf 92 55 3f 5d 83 2b 3f
       1.7261018 -0.31686026 0.8342704 0.6699732
000200 1a 82 59 3e 40 93 ae 3e 8a fb 68 bf 8a df 9f bf
       0.21241036 0.34096718 -0.9100882 -1.2490094
000210 35 df 66 bf 30 f8 37 3f d8 8b e7 3f 71 b6 03 40
       -0.90184337 0.7186308 1.8089552 2.0580103
000220 8a 5c ba bf d9 1d 89 bf d0 62 36 c0 16 f0 cd bf
       -1.4559491 -1.0712234 -2.849781 -1.6088893
000230 1e fe ee 3e fd e7 c6 bf d6 37 d7 be 5c a8 92 be
       0.4667825 -1.5539547 -0.42034787 -0.28644073
000240 c4 12 b8 3e f8 2e 92 3e 65 26 e0 3f 7f 28 d4 bd
       0.35951817 0.2855146 1.7511717 -0.103592865
000250 7e 0d 73 bf 76 0b 1e 3f 6a 4f c8 be 21 e9 fa 3f
       -0.9494246 0.6173624 -0.39123088 1.9602395
000260 38 cb 89 be 48 a0 4c 3f 0e 93 71 3d 96 65 88 bf
       -0.26912856 0.7993207 0.058978133 -1.0656002
000270 80 d2 9c bf dc 0d b3 3d bb 0a a2 3e 61 1c 8e 3d
       -1.225174 0.08742878 0.31648812 0.069390066
000280 d5 a1 a7 3e 72 51 b9 3f 9b 98 e0 3e f8 28 a3 be
       0.32740656 1.447798 0.4386643 -0.31867194
000290 ee fa 66 3f ec bc 91 3f c1 2e c6 be 40 38 3a bf
       0.9022664 1.1385779 -0.38707545 -0.7274208
0002a0 95 b7 45 bf 31 4a f8 be 5f 5f 45 bf ff 8c 6b 3e
       -0.7723325 -0.48494104 -0.7709865 0.23003004
0002b0 78 52 4d 3f d9 df 34 bf 14 82 d1 be 0f 12 dc 3e
       0.8020396 -0.70654064 -0.40919554 0.42982528
0002c0 8c 6f 09 40 26 2a 51 3f 9c cf 9d 3e 88 cd 85 be
       2.1474333 0.8170494 0.30822456 -0.2613337
0002d0 f6 f7 e6 be 75 38 96 bd 2f eb 86 bf 1c fd eb be
       -0.45111054 -0.07334987 -1.0540522 -0.46091545
0002e0 fe 83 86 bf 11 d9 27 bc f2 c2 b4 3e 62 06 bf bf
       -1.0509031 -0.010244624 0.3530498 -1.4923823
0002f0 5e 41 92 3f eb a0 b3 be 05 87 f7 be 87 40 52 bf
       1.1426198 -0.35083708 -0.483452 -0.8212971
000300 60 36 2c 3d ad b4 1c bf 47 1e e1 bf bc 96 6e be
       0.042044044 -0.6121319 -1.7587365 -0.23299688
000310 f5 3a c8 3e 11 46 42 bf f3 df d2 3e de d6 6e bf
       0.3910748 -0.7588816 0.41186485 -0.9329661
000320 cf 9b a3 3f b8 1c 9a bf 41 c7 bb 3e be dc 78 3f
       1.2781924 -1.2040014 0.36675456 0.97211826
000330 97 36 c0 3f 2c c6 2b 3f 69 de 59 3f 47 6c 4d bd
       1.501666 0.6709926 0.85104996 -0.05015209
000340 85 74 f9 bf 31 87 0c bf ac d2 e2 3e a9 ed 32 bf
       -1.9488684 -0.54893786 0.44301355 -0.6989389
000350 90 79 c4 bf 20 06 aa be 21 b7 5c 3f 19 0e c2 bf
       -1.5349598 -0.33207798 0.8621693 -1.5160552
000360 1c 7c 4d bf 51 df a7 3f 34 d0 bf bc 53 59 ac be
       -0.802675 1.3115026 -0.023414709 -0.336619
000370 d7 c6 27 bf 3d 7d 6d be 75 59 9c 3e fd 53 13 be
       -0.6553778 -0.23192306 0.30537 -0.14387508
000380 4a 19 33 3e a7 c4 2b c0 d3 06 b2 bf d9 f6 bb 3f
       0.17490116 -2.6838777 -1.3908333 1.4684707
000390 8f 59 10 3f d7 8c 27 3e de cb 8b bf ad 65 da be
       0.56386656 0.1636232 -1.092159 -0.42655697
0003a0 8d fa 86 3e 0c 9d 0a 40 27 1c 11 3f ab 4f a0 3e
       0.2636303 2.1658354 0.5668358 0.31310782
0003b0 ae d7 95 bf 5f f2 2a 3e 94 4a fe 3d 6a 60 47 3e
       -1.1706445 0.1669402 0.124165684 0.19470373
0003c0 41 19 e3 3e e7 f2 b9 3f 29 ef 38 bf a7 0c 63 bf
       0.44355205 1.4527253 -0.7223993 -0.8869118
0003d0 22 23 4d 3f d7 af 91 bf 63 5b 8d 3e c7 29 8c bf
       0.80131733 -1.1381787 0.27608785 -1.095025
0003e0 61 2e a5 bf 56 75 40 40 ab ec 6d 3e 48 dd 02 be
       -1.2904779 3.0071616 0.23234813 -0.12779725
0003f0 4d 1e 17 c0 a0 7e 93 3f 44 8f 63 3f d9 e2 36 be
       -2.3612244 1.1523018 0.8889048 -0.17859973

embedding_outside.weight f4 [1889, 2]
000000 fb f2 a9 3d b6 9e a6 be 12 9d 08 3b 12 fd 09 be
       0.08298298 -0.32542962 0.0020845574 -0.13475445
000010 5f ff aa 3d e5 1d 80 bd 79 7a 83 3e 6d ea 9d bd
       0.083494894 -0.06255702 0.25679377 -0.07710729
000020 3d a3 ae bf 4a ec 3d 3f fc cc ac 3c 26 9f 85 be
       -1.3643566 0.74188673 0.021093838 -0.26097983
000030 34 a2 d8 3f 97 cc cf bd e9 f9 77 3e 97 6e 32 bf
       1.69245 -0.10146444 0.24216427 -0.69699997
000040 5e 09 1f 3f 54 8b 8d bd a8 15 3a 3e 81 f3 19 3e
       0.6212367 -0.0691134 0.18172324 0.15034296
000050 d5 6a 78 3e 80 bf 0c 3e e6 82 40 3d 80 2b 85 be
       0.24259503 0.13744926 0.046999834 -0.2600975
000060 a9 d2 98 be 80 b7 2a be 86 cf fa 3e f5 2c ca bd
       -0.2984822 -0.16671562 0.48986453 -0.09871856
000070 21 a1 47 3e 1b 23 06 bf 7f c6 09 3d 53 2d 6a be
       0.1949506 -0.52397317 0.033636566 -0.22868852
000080 da ef 7e 3d a9 5d 9d be 2d 13 61 bd 96 b8 eb bf
       0.06224046 -0.3073552 -0.054949928 -1.8415706
000090 95 39 1d 3d 62 c5 60 be ce 9f de bc 65 99 5f bf
       0.038384993 -0.21950296 -0.02717581 -0.87343436
0000a0 e8 12 b3 3f c1 27 05 bf f1 11 38 3e 2b 27 61 bf
       1.3990145 -0.52013785 0.17975594 -0.8795039
0000b0 b2 66 17 3d b7 a9 4e be dc f0 ac 3f b6 15 89 3f
       0.036963172 -0.20181929 1.3511004 1.0709751
0000c0 a0 9b 07 3d e5 35 67 bc ef e8 fc bb 19 ce 22 be
       0.0331074 -0.014111971 -0.0077181975 -0.15898933
0000d0 21 ba b3 3e d4 67 a8 bc c9 c7 22 3f 34 90 03 c0
       0.35102943 -0.020557322 0.635861 -2.0556765
0000e0 6a 0c f6 3e d5 f3 92 be ca 3e dd 3b a3 7f 80 be
       0.48056346 -0.28701654 0.00675187 -0.2509738
0000f0 db 30 99 3d e3 2d 61 be de 4b d8 3c 65 02 78 be
       0.074800216 -0.2199016 0.026403364 -0.24219663
000100 99 67 6b bc 23 0e e3 be 23 47 5d be 62 a7 4a bf
       -0.014367961 -0.44346723 -0.21609168 -0.79161656
000110 6f 3d 64 3d 65 a1 4f be 00 97 85 bf 1b cd 5f 3f
       0.05572265 -0.20276411 -1.0436707 0.8742234
000120 f2 35 09 3d bb 64 72 be f0 2f f4 3c c0 03 77 be
       0.033498712 -0.23671238 0.029808015 -0.24122524
000130 21 64 e5 3c cb cc 7c be e7 49 4a 3d 03 37 40 be
       0.028001847 -0.24687497 0.049386885 -0.18770985
000140 a7 69 3f bd de cb 88 3d 14 8e 09 bd f3 bc 91 be
       -0.046731617 0.066795096 -0.033582762 -0.2846447
000150 ec 70 19 bf 7a e2 42 be 31 12 0a bf 97 0d 3c bf
       -0.5993793 -0.19031706 -0.5393401 -0.73458236
000160 e7 fa 11 3e d3 86 a5 3e 23 bf c3 3d 4c 3a 96 3e
       0.14255868 0.32329425 0.09557941 0.29341352
000170 b7 1e 1c 3f f2 2a ac bd d1 a5 c1 bf 10 44 91 be
       0.6098437 -0.08406629 -1.5128728 -0.2837224
000180 6f 9f e9 3c 5e 83 0e be 93 47 ca 3d fc 96 44 be
       0.028518407 -0.139173 0.09876933 -0.19198221
000190 24 26 d2 be 87 15 9a be c7 ae dc 3c ce 6d 78 be
       -0.41044724 -0.3009455 0.02693881 -0.24260637
0001a0 af 94 9f 3b 1b c1 07 be 7c 30 54 3b dc 80 8c be
       0.0048700194 -0.13257258 0.0032377532 -0.27442062
0001b0 85 11 13 3e a2 d2 3f bd c8 84 be be 89 e0 1f bf
       0.14362152 -0.046831734 -0.3721068 -0.6245199
0001c0 e9 bb a6 be 37 e4 94 3b 74 b3 75 bf 0e d8 1d c0
       -0.3256524 0.004543807 -0.9597695 -2.466312
0001d0 56 93 b8 3e 2e a7 d6 bc ff ea f7 3c af ad 6b be
       0.36049908 -0.026202764 0.030263422 -0.23015474
0001e0 10 76 a6 bd 9d f1 d4 be 3c a5 8a bf b6 2d b3 3d
       -0.081279874 -0.41590586 -1.0831676 0.08748953
0001f0 08 7d d0 3c af b3 7b be e5 dd ae bc 66 bd 84 be
       0.025450245 -0.24580263 -0.021346042 -0.2592575
000200 d0 3d ff 3d fb 9c 11 3e e6 b6 15 3d e3 0c 6a be
       0.12462962 0.1422004 0.03655138 -0.22856478
000210 4c 66 01 3d ec fa 72 be 99 cf 12 3d bc d2 c1 3e
       0.0315917 -0.23728532 0.03584251 0.3785609
000220 3c 01 f9 3c 4e 1e 72 be 23 89 27 be 54 8e 13 3f
       0.030396096 -0.23644373 -0.16360907 0.5763905
000230 ce 1f f5 3c b6 45 73 be 31 8b aa 3e 92 95 aa be
       0.029922392 -0.23757061 0.3330932 -0.33317238
000240 a6 61 50 be ec 49 e2 bf d6 be 24 3d 12 31 4c be
       -0.2034975 -1.7678809 0.040221058 -0.19940594
000250 e5 0c da 3e cc 8d 4b 3f f9 54 32 3e 81 c9 84 be
       0.42587963 0.7951324 0.17415227 -0.25934985
000260 e6 fb 37 3e 2a e8 07 3f 80 13 54 3c 52 00 d5 be
       0.17967185 0.5308863 0.012944102 -0.41601807
000270 10 e9 54 3e 34 7e 45 bc 4c 9c e9 3e 90 7e 61 3f
       0.20792031 -0.012054015 0.45627058 0.88083744
000280 ac 02 fe 3c 86 cd 73 be f8 77 31 3f 0d 04 4d bf
       0.031007133 -0.2380887 0.6932368 -0.80084306
000290 44 ca 8d bd b5 e5 cd be 1a c6 fd 3c e7 69 73 be
       -0.06923345 -0.40214315 0.030978251 -0.23770867
0002a0 0b b9 11 3e 59 7b 8e 3e 3b c2 0c 3d 24 1c 74 be
       0.14230745 0.27828482 0.03436492 -0.2383886
0002b0 74 af 8c bf 04 e2 d4 3e 58 62 6b 3f d0 11 73 b9
       -1.0991044 0.41578686 0.91946936 -0.00023180922
0002c0 70 ad 66 3e 3f 49 41 be 58 35 c0 3f 1e ec d7 3e
       0.22527099 -0.18875597 1.5016279 0.4217233
0002d0 84 85 5a 3f 2c 01 ed bd 69 e2 40 bf df de c3 3e
       0.8535998 -0.11572489 -0.75345474 0.38255975
0002e0 41 18 f2 3c 33 93 77 be 17 76 c7 bc d7 95 06 bc
       0.02955258 -0.24177246 -0.024348302 -0.008214436
0002f0 e2 d5 42 3e d0 8c e5 3e fe 59 37 3f 33 77 6f bf
       0.19026902 0.44833994 0.7162169 -0.9354126
000300 bc 57 cd 3f cc b9 7e bf ab 58 e8 bc c4 9d 20 be
       1.60424 -0.99502254 -0.028362593 -0.15685183
000310 c9 9c 4e be 6d 8c 33 bf 8e b3 46 bf 09 f5 b5 3e
       -0.20176996 -0.7013615 -0.7761773 0.3553851
000320 d7 80 2f 3d c3 78 51 be 75 f4 c5 3e cd 47 8d 3e
       0.04284748 -0.20456223 0.38663068 0.27593842
000330 03 59 6a 3d a0 23 6e 3f af 88 0c 3f 99 59 a4 3c
       0.057213794 0.9302311 0.5489606 0.020062255
000340 97 67 e0 3c be b0 78 be fd aa 40 be ed 46 39 be
       0.027393145 -0.24286172 -0.18815227 -0.18093462
000350 56 bc dd 3e 2a ec 97 3e f6 5f 3d 3e 45 32 f6 bf
       0.4330775 0.29672366 0.18493637 -1.9234091
000360 13 1b 1f be 7c 72 8a be 5c 9d d7 3e 3e 7b 93 bf
       -0.15537672 -0.2704047 0.42112243 -1.1521986
000370 56 22 61 bc 9a 0e 3a be 77 b6 3f bd 55 9e 9c be
       -0.0137410965 -0.18169633 -0.04680487 -0.30589548
000380 58 81 e4 bd 5f 6f 05 bf f5 d2 c7 bd 42 04 a8 be
       -0.11157483 -0.52123064 -0.09757034 -0.32815748
000390 21 b0 1a 3e a3 e0 92 be 46 c6 84 bf f5 7b 90 3d
       0.1510625 -0.2868701 -1.0373008 0.07054893
0003a0 6b 3d e0 3c 74 30 79 be 5f ec 83 3c f4 52 79 be
       0.027373036 -0.2433489 0.016103921 -0.2434805
0003b0 85 86 aa 3e 1b ce b7 3f bc d4 9f 3a b8 f9 ae bd
       0.33305755 1.4359773 0.0012194137 -0.08543724
0003c0 cb fa 8c 3d 44 1d 3b be 07 ee cf bc 7e 23 c3 3e
       0.068837725 -0.18272883 -0.025382055 0.38113016
0003d0 41 fc 17 3d 7d d4 5b be 85 44 66 bf 43 4a 26 bf
       0.037105802 -0.21467777 -0.899483 -0.64957064
0003e0 5e 3a 09 3f 34 7f 8a 3f d8 a7 82 be 04 ab af be
       0.53604686 1.0820069 -0.2551868 -0.34310162
0003f0 25 c6 f8 3d d2 25 be 3e 08 1c 53 bd 6e 27 1e 3d
       0.12147168 0.3713823 -0.051540405 0.03861182
