Assignment -1/model/glove_model.pth (torch, 47941 bytes, 4 tensors)

embedding_center.weight f4 [1889, 2]
-0.8933571 -0.43990266 -0.61304396 0.25826597 -1.4419473 -1.4028132 -1.2907653 -0.12074398
-0.29000685 -0.07354075 -0.6456055 -1.0981661 0.28765205 -0.7963559 -0.05462971 0.12558135
-0.8428536 1.2191658 0.83713984 0.7934851 -0.18830319 -1.0452923 0.17325543 0.8624124
1.2073312 1.4057841 0.31530795 -1.9669695 -0.9783023 -0.10459103 -0.31560487 -0.42380944
0.86804634 -1.4527875 0.027871631 0.69763756 -0.35696334 -0.5778602 0.21604933 0.23012517
0.21157035 -0.20425864 -1.0610086 -0.60919297 -0.17391971 -0.6726086 -0.4962635 0.050811898
-0.97816664 0.4965844 0.23993808 -0.5281669 0.5249086 -0.17481703 1.2295462 0.29080874
-1.7291481 1.258243 -2.7080617 -0.38312963 1.1278081 0.7065621 -0.15283005 0.87994754
0.1556291 0.6787181 2.2033663 0.31994423 -0.4289895 0.8936837 1.1882905 -0.8628291
-0.13535562 -1.1696588 1.9310503 -0.9169686 0.6143242 0.89352006 -0.20701061 0.2405129
1.1809167 -0.8932101 1.7724175 0.5179741 -0.7913337 1.0374871 -0.6816737 0.9320736
-0.20872301 1.4294661 -0.33964872 -1.5416129 0.5040471 -0.2440162 -1.933823 -0.7760907
-0.5276463 -0.12630454 1.3943269 -0.09754223 -1.1343354 -0.60194594 -0.6414183 0.67633355
-0.023467796 0.18592377 -0.9520489 -0.7269243 -0.9924579 -2.2222128 -0.88228565 -0.83171237
-0.13863254 -0.099344045 0.8262135 -0.061210297 0.7674425 -1.8500739 0.10511739 -0.08883737
0.07418947 -1.019125 -0.7220065 -1.0859038 -1.3244056 0.7688765 1.0826792 -1.2068245
-1.3388933 0.69051427 0.7824752 1.9946685 0.6993103 -0.37915424 1.1683685 1.052014
0.7864015 0.47394612 0.23507437 1.3061904 0.9695517 1.2060008 -0.744653 -0.41528717
0.6506473 -1.1862562 -0.04140991 -1.2464439 -0.3747756 -0.5306001 -0.59222096 1.9053506
0.38461852 -1.4655658 -0.52245843 -0.360087 -0.88215154 -0.5546804 -2.3341696 -0.37790397
-0.36311662 0.0024892807 -0.45932385 -0.52680117 0.55059236 0.6452848 -0.9387627 -0.88472754
1.1086799 -0.05884699 -1.1545322 0.18232477 1.0963678 -0.2853938 -1.1679336 -0.42787716
-0.47316068 1.246752 -0.36680034 -1.1107489 0.43588078 -1.2768517 -0.80401146 -0.33030155
0.049717758 0.12522538 -0.30606115 -0.78806263 0.8362927 -0.51449937 -1.256225 0.076711774
0.82298195 0.7669296 -0.5467863 -0.37532535 -0.79414564 1.1067488 -0.1960486 -0.41558048
-1.271971 -0.4177308 -0.9296948 -0.21699749 0.81498253 1.7446839 -1.3549896 2.4144626
-0.13943048 -0.70745754 -0.13172172 0.5029233 1.24462 0.10819619 -0.5463677 -0.7625161
-0.016455028 0.53471553 1.1858424 0.24676827 -0.17319939 1.427009 -0.60276985 0.7840425
-0.31229895 -1.3483254 0.5280094 1.1111058 -0.37636617 -0.8340861 -0.6410575 0.20576759
-0.27108753 0.19951461 -1.2274722 1.8657612 0.101311274 0.73199254 0.18395668 -0.87257713
0.7884624 -0.48332366 -1.1987609 -0.08420489 -0.3446602 0.47562122 0.4336115 -0.004759796
-0.67567146 1.1399632 0.6174717 -0.2757357 -0.56558 1.1565998 -0.84467626 1.5025294
00000000: 0db3 64bf ec3a e1be 73f0 1cbf 703b 843e
00000010: bb91 b8bf 628f b3bf cc37 a5bf 9f48 f7bd
00000020: c77b 94be 889c 96bd 6746 25bf b590 8cbf
00000030: 2147 933e fbdd 4bbf 67c3 5fbd 6698 003e
00000040: 41c5 57bf a00d 9c3f cc4e 563f d721 4b3f
00000050: 8dd2 40be 23cc 85bf df69 313e 0fc7 5c3f
00000060: d489 9a3f bcf0 b33f 0b70 a13e a8c5 fbbf
00000070: 0572 7abf d233 d6bd f696 a1be 8dfd d8be
00000080: 4938 5e3f f1f4 b9bf 0c53 e43c 6098 323f
00000090: e6c3 b6be a5ee 13bf 093c 5d3e efa5 6b3e
000000a0: e6a5 583e 2d29 51be 21cf 87bf 12f4 1bbf
000000b0: 0218 32be 1430 2cbf 4016 febe 2320 503d
000000c0: 2169 7abf 4f40 fe3e 54b2 753e f235 07bf
000000d0: 6960 063f 3c03 33be c561 9d3f e2e4 943e
000000e0: ba54 ddbf 1b0e a13f e250 2dc0 9129 c4be
000000f0: 045c 903f 41e1 343f 7b7f 1cbe 3e44 613f
00000100: 3c5d 1f3e 78c0 2d3f f403 0d40 bbcf a33e
00000110: 83a4 dbbe 74c8 643f e719 983f 5ee2 5cbf
00000120: aa9a 0abe 61b7 95bf a82c f73f 74be 6abf
00000130: 5a44 1d3f bbbd 643f 97fa 53be 0349 763e
00000140: 4728 973f 6ba9 64bf 94de e23f f399 043f
00000150: d894 4abf 61cc 843f 2b82 2ebf 609c 6e3f
00000160: 7cbb 55be bff8 b63f 70e6 adbe 9253 c5bf
00000170: 3b09 013f 62df 79be 8387 f7bf e1ad 46bf
00000180: d413 07bf fa55 01be 4e79 b23f 38c4 c7bd
00000190: e731 91bf 2119 1abf fd33 24bf 3224 2d3f
000001a0: 893f c0bc cd62 3e3e 7ab9 73bf b617 3abf
000001b0: b911 7ebf bc38 0ec0 79dd 61bf 1aeb 54bf
000001c0: b0f5 0dbe e474 cbbd ba82 533f a6b7 7abd
000001d0: 1d77 443f 39cf ecbf c947 d73d 5ef0 b5bd
000001e0: a6f0 973d b072 82bf 6bd5 38bf e5fe 8abf
000001f0: 1f86 a9bf 17d5 443f 3b95 8a3f 3a79 9abf
00000200: db60 abbf 8bc5 303f 4b50 483f 4c51 ff3f
00000210: 0006 333f 8120 c2be 198d 953f 65a8 863f
00000220: 9c51 493f 11a9 f23e 56b7 703e 3f31 a73f
00000230: 8a34 783f 3c5e 9a3f 94a1 3ebf 85a0 d4be
00000240: d290 263f 3ed7 97bf 709d 29bd 798b 9fbf
00000250: 96e2 bfbe 68d5 07bf cb9b 17bf 87e2 f33f
00000260: b8ec c43e a997 bbbf d6bf 05bf 535d b8be
00000270: afd4 61bf 89ff 0dbf 0963 15c0 a17c c1be
00000280: 6cea b9be 3323 233b 7f2c ebbe 71dc 06bf
00000290: 9ff3 0c3f 6231 253f c152 70bf 817d 62bf
000002a0: 39e9 8d3f 8b09 71bd b6c7 93bf 58b3 3a3e
000002b0: c855 8c3f 231f 92be d97e 95bf b712 dbbe
000002c0: 1e42 f2be 9295 9f3f 41cd bbbe 052d 8ebf
000002d0: c42b df3e e06f a3bf b2d3 4dbf 491d a9be
000002e0: d9a4 4b3d 153b 003e 0cb4 9cbe 79be 49bf
000002f0: 4717 563f 3bb6 03bf fbcb a0bf 101b 9d3d
00000300: f2ae 523f 8055 443f 30fa 0bbf a52a c0be
00000310: 214d 4bbf f2a9 8d3f f7c0 48be f7c6 d4be
00000320: f2cf a2bf d0e0 d5be 7a00 6ebf 9734 5ebe
00000330: b2a2 503f cd51 df3f 4d70 adbf 8e86 1a40
00000340: ddc6 0ebe f01b 35bf 0fe2 06be 95bf 003f
00000350: b54f 9f3f f795 dd3d c1de 0bbf 4134 43bf
00000360: b2cc 86bc 1ee3 083f afc9 973f d2b0 7c3e
00000370: 2e5b 31be 3ba8 b63f 204f 1abf 02b7 483f
00000380: a6e5 9fbe ed95 acbf a02b 073f b738 8e3f
00000390: 11b3 c0be ab86 55bf 581c 24bf bdb4 523e
000003a0: fccb 8abe 8f4d 4c3e cf1d 9dbf 43d1 ee3f
000003b0: 497c cf3d dd63 3b3f 245f 3c3e 3761 5fbf
000003c0: acd8 493f 3376 f7be ff70 99bf 9d73 acbd
000003d0: 4d77 b0be a084 f33e 5402 de3e 10f8 9bbb
000003e0: cef8 2cbf 50ea 913f a012 1e3f 3b2d 8dbe
000003f0: dac9 10bf 760b 943f b43c 58bf e252 c03f

embedding_outside.weight f4 [1889, 2]
0.42047647 -0.53472006 -0.37696183 -0.44659314 0.61620367 -0.099414274 0.4236296 0.25666338
0.55286616 -1.2617787 -0.043010227 0.8680254 0.19629835 0.5199603 0.5864614 -1.2677245
-0.3192235 1.7569602 -0.5932045 -0.345235 0.40204564 -0.33993334 -0.0742095 -1.5711751
-0.25262782 -1.5648398 -1.7963071 0.12539357 2.8229003 -0.9278957 -0.8385217 0.106030695
0.47402024 1.0636635 1.7081238 -1.0609529 0.10987747 1.3742567 1.3259349 0.111926936
1.0366126 1.4955423 0.92189676 -0.020801093 2.459506 2.15333 -0.5101542 0.16173363
0.4477323 1.4845885 0.17151047 -0.3963844 -0.00047503258 -1.3005161 0.8780502 -0.67714155
-0.4370678 0.20878686 -0.15514262 1.8314489 -0.44366297 -0.2986855 -0.5407782 0.08459238
1.33368 0.9732435 1.279076 -0.3488054 0.052949198 0.8741042 -1.261181 -0.57999897
0.91862977 -0.23077573 -0.0076195505 0.26185837 1.0652156 0.20995563 -0.12006475 0.2688541
-0.030317554 -0.6069615 0.87673575 -0.19845594 0.70700705 -0.7384915 0.63004607 -0.6282314
0.5773363 1.4328445 0.58940136 -0.298414 2.4927938 -0.22796884 1.6457242 0.21989292
-2.1394966 -0.55440724 0.30143717 0.15388052 0.8205787 -0.37630922 -1.4805381 0.07693551
0.1252776 1.2319142 -0.2569028 1.1653816 0.9441903 -1.5752131 -0.3429251 0.15812846
0.05949133 0.5866584 -0.424418 -0.062328413 1.2177558 -0.3462576 0.49309367 -1.3178809
0.9508771 -0.8780344 0.24218284 0.41215307 -0.60701895 -0.34390885 1.2945025 0.34681508
-0.2138778 -1.2456893 -1.3725994 -0.12213388 -1.0492688 2.4861553 -0.7171572 -0.97195
-0.41119605 0.53787106 -0.03044617 -0.2986456 -0.23642519 -0.54130185 0.07644296 -0.013396936
-2.0986052 -0.6275604 -0.08687447 -1.2339528 -0.4760241 0.43052799 0.16620113 -0.15074857
0.35427034 -0.60152143 -0.9060959 1.308555 -0.6215964 -0.42814595 -0.23222247 0.22735229
1.8556101 -0.7459112 -0.459599 0.18256292 0.35426077 0.7310076 0.6193811 0.61567235
0.18626687 -0.43423316 -0.27790165 0.5619218 -0.6225295 -1.6240997 0.27391893 1.1868647
-2.0882504 -0.4816378 0.5120352 1.1933424 0.5881917 1.063107 0.017115563 -0.36304262
0.61383396 -0.42046118 -0.19293454 0.35074943 1.3453048 0.14000207 -0.13660327 0.53769565
-0.48302 0.64912134 1.1455104 1.031096 0.8156471 0.038097538 -1.0710565 -1.423802
-0.83132845 2.2653334 0.6404939 0.6682319 0.321706 0.52439845 1.3467764 -0.98665744
-0.49534696 0.1489229 -0.11671993 0.5201465 0.441692 0.31664586 0.4787563 -0.06277387
0.73388404 -0.4804314 -1.1980478 -0.13856259 -0.48810303 0.39042825 -0.32560316 0.013777848
-0.63360137 0.9663998 -1.4540356 1.0772171 -0.07320935 0.38997382 -0.06762342 2.2026293
1.4310608 -1.2394507 1.3921838 -0.77638745 0.3946503 1.2664564 -0.23878478 0.63430613
-0.2443192 -0.5766468 0.46106675 0.32313007 -0.72573864 -0.33919823 0.42181596 1.095885
1.368042 0.55622905 -0.6498137 -0.28791243 0.1945486 0.929613 1.039634 -0.57512534
00000000: b148 d73e 6ae3 08bf 2401 c1be dba7 e4be
00000010: 86bf 1d3f b699 cbbd fbe5 d83e 6269 833e
00000020: a388 0d3f f781 a1bf 7e2b 30bd ea36 5e3f
00000030: 6f02 493e 1e1c 053f 5622 163f cc44 a2bf
00000040: 4371 a3be 12e4 e03f 40dc 17bf a4c2 b0be
00000050: edd8 cd3e be0b aebe 26fb 97bd 441c c9bf
00000060: 6f58 81be ac4c c8bf 64ed e5bf 2c67 003e
00000070: 66aa 3440 938a 6dbf 5ca9 56bf 9f26 d93d
00000080: c8b2 f23e 2026 883f cda3 da3f 4ecd 87bf
00000090: 7007 e13d a5e7 af3f 3cb8 a93f f339 e53d
000000a0: b9af 843f ee6d bf3f 6d01 6c3f 0e67 aabc
000000b0: 8c68 1d40 29d0 0940 7799 02bf 809d 253e
000000c0: 2b3d e53e ff06 be3f 71a0 2f3e e5f2 cabe
000000d0: cb0d f9b9 5077 a6bf e6c7 603f 2659 2dbf
000000e0: 5ac7 dfbe 39cc 553e b5dd 1ebe eb6c ea3f
000000f0: cb27 e3be 4eed 98be 7170 0abf c53e ad3d
00000100: 07b6 aa3f 7c26 793f c3b8 a33f 9f96 b2be
00000110: 42e1 583d 4bc5 5f3f 616e a1bf d07a 14bf
00000120: 522b 6b3f 7950 6cbe 6cad f9bb 4d12 863e
00000130: fc58 883f 9cfe 563e 82e4 f5bd 3fa7 893e
00000140: 855c f8bc d461 1bbf c171 603f 0938 4bbe
00000150: 6afe 343f c70d 3dbf b34a 213f c6d3 20bf
00000160: 50cc 133f 7367 b73f 02e3 163f b8c9 98be
00000170: ef89 1f40 aa70 69be 17a7 d23f 9c2b 613e
00000180: 83ed 08c0 a2ed 0dbf f955 9a3e db92 1d3e
00000190: 7211 523f 9aab c0be 4682 bdbf 5d90 9d3d
000001a0: c548 003e 5daf 9d3f c488 83be 392b 953f
000001b0: 75b6 713f 95a0 c9bf e193 afbe 6dec 213e
000001c0: 2ead 733d 3f2f 163f 514d d9be 144c 7fbd
000001d0: 6cdf 9b3f ad48 b1be c676 fc3e 52b0 a8bf
000001e0: ae6c 733f ddc6 60bf c7fe 773e ba05 d33e
000001f0: 9865 1bbf d214 b0be 42b2 a53f bf91 b13e
00000200: c802 5bbe bf72 9fbf 56b1 afbf 5421 fabd
00000210: 714e 86bf 2b1d 1f40 9d97 37bf b7d1 78bf
00000220: 4a88 d2be ebb1 093f 3f6a f9bc 13e8 98be
00000230: 7219 72be c292 0abf 208e 9c3d d27e 5bbc
00000240: 8c4f 06c0 cca7 20bf 3eeb b1bd 2af2 9dbf
00000250: 6eb9 f3be 2a6e dc3e a130 2a3e d55d 1abe
00000260: ec62 b53e 4ffd 19bf e7f5 67bf bb7e a73f
00000270: f120 1fbf f235 dbbe bacb 6dbe 0acf 683e
00000280: a284 ed3f 09f4 3ebf 8f50 ebbe c6f1 3a3e
00000290: ab61 b53e 5023 3b3f c38f 1e3f b49c 1d3f
000002a0: bebc 3e3e cf53 debe 2049 8ebe 1bda 0f3f
000002b0: 185e 1fbf 80e2 cfbf 1a3f 8c3e 2feb 973f
000002c0: e5a5 05c0 3b99 f6be bd14 033f 72bf 983f
000002d0: bb93 163f e413 883f f035 8c3c b9e0 b9be
000002e0: 3924 1d3f b046 d7be a290 45be 6e95 b33e
000002f0: f332 ac3f b45c 0f3e bae1 0bbe 6ca6 093f
00000300: 664e f7be d12c 263f 16a0 923f f4fa 833f
00000310: 40ce 503f 2a0c 1c3d 6118 89bf 253f b6bf
00000320: f1d1 54bf 39fb 1040 69f7 233f 3f11 2b3f
00000330: a6b6 a43e fa3e 063f 2b63 ac3f 9595 7cbf
00000340: 1e9e fdbe 3f7f 183e dc0a efbd 5228 053f
00000350: 7425 e23e 681f a23e 8c1f f53e 968f 80bd
00000360: d3df 3b3f 1bfb f5be a159 99bf 5ae3 0dbe
00000370: a4e8 f9be 36e6 c73e 75b5 a6be 7cbc 613c
00000380: b333 22bf fa65 773f d71d babf 40e2 893f
00000390: c9ee 95bd a6aa c73e 267e 8abd e1f7 0c40
000003a0: 002d b73f 52a6 9ebf 1433 b23f 54c1 46bf
000003b0: 9b0f ca3e 3e1b a23f ff83 74be e361 223f
000003c0: d02e 7abe 209f 13bf f110 ec3e 4e71 a53e
000003d0: 02ca 39bf 64ab adbe 43f8 d73e f645 8c3f
000003e0: 001c af3f 0765 0e3f 315a 26bf 4269 93be
000003f0: c037 473e 1efb 6d3f ba12 853f 6a3b 13bf

v_bias.weight f4 [1889, 1]
1.0051954 1.6012595 0.27233204 -0.48968643 1.3525017 0.8827741 0.7385967 1.3074995
-0.5346102 -0.31946167 -0.6720983 -1.123967 -0.62047476 -1.6710205 -0.533026 0.27313912
1.3766533 -0.1306504 -0.007912291 1.7479798 -0.22424228 -1.7325021 -1.0099561 0.72488177
-0.20085749 -0.943689 -0.057982914 0.4202824 -1.0539707 -1.9813088 -0.038699016 0.65953636
-0.4981834 -0.28978857 1.1198099 -0.45401195 -1.0256582 2.2830272 0.6538297 0.4054897
1.397407 -0.9559705 1.5420934 -1.2886863 0.0841516 -1.0782858 1.0448298 0.00017892635
-1.1978538 1.7407612 0.60127604 -1.6065112 -0.16236024 -0.83259016 -0.5814232 -1.823553
-0.8594383 -0.13986395 -0.083731964 -0.23761842 -0.91663533 0.7534414 0.29054496 1.3710269
-1.3828899 -2.9680138 -0.65204394 0.7315101 0.25338075 0.25152993 -0.7583445 1.8786925
1.9470797 -0.8484759 -1.8081014 0.037447885 1.4718466 1.0719533 2.1248755 -0.35557556
0.028139548 -0.23682545 -0.011073884 -0.02682652 -0.661373 0.57518715 -2.595424 0.64189875
0.7657917 -1.6562151 0.8294092 0.017682547 -0.013045939 1.5771902 -1.2869252 -0.2763061
0.026645603 1.4485581 -3.0625257 1.200578 0.4051971 -1.2506894 1.2211648 0.15915409
-0.48968494 0.21951252 -0.012654903 1.7280861 -0.19276395 0.6818963 0.63029635 0.4986346
-0.1975561 0.0744745 0.45014524 0.37379828 0.005642452 -0.80515164 -0.7107783 -1.6770315
-1.9820116 0.92076296 -0.10791315 -2.089672 -1.1309456 -0.5810108 -0.16153868 -0.1589688
0.25145358 -1.4766309 -2.1449094 -0.11056309 0.2719752 -1.128734 0.41454843 -1.2098597
0.35994744 -2.5391228 1.6427006 -0.8286649 0.1560807 -0.27372363 1.8682 -0.30923358
-1.8037778 0.8325432 1.3694832 -1.2562099 0.9621183 -0.8123966 -2.4369605 1.5924429
-0.6662409 -1.0306058 -0.6980156 0.59939146 0.30606815 -0.50998783 -0.9350457 -0.25912392
-0.11994003 -0.4650874 0.64811826 0.051184654 0.59558964 0.87842506 -1.4180464 0.49170363
-2.1652892 0.47598064 -1.2406267 0.77247095 1.440775 -0.8091087 1.5567622 0.6382343
-0.78629386 -0.1001772 -0.8351869 -0.1103243 -0.038830236 -0.994916 -0.6233929 -0.8681297
0.803398 0.44378924 1.3304875 0.61251736 -0.04307761 -1.4713249 -0.6504076 -1.1174827
1.0867443 -1.7551361 -1.3556185 -0.6868368 -1.2435021 -0.2826066 0.6805843 -0.23751742
-0.46512055 0.23200557 0.4794451 1.0241941 -0.7455434 -1.0459483 0.61438763 -0.10245148
-1.1830416 1.3165596 0.12941852 0.44724324 -0.8834085 0.34848034 -1.114227 1.3370786
-0.04360219 -1.3554342 0.112086914 1.2125119 -0.17676686 -1.1936077 -0.5831805 2.2226582
1.127132 0.24795865 -0.5975264 -0.014842131 -1.4731635 0.9266805 0.21432815 0.42395666
-0.30493432 1.4376405 0.10754265 -0.8873729 -0.23843475 0.38862172 -0.86860305 1.2931737
0.5376738 -0.44727293 0.78604144 -0.22258659 -0.81329817 -0.46890658 -0.2629578 -0.22254702
-0.2013828 -0.32158765 -0.88426757 -0.6829823 1.8253638 -0.8796605 -1.2785676 -0.42447552
00000000: 3eaa 803f 12f6 cc3f 1b6f 8b3e 2eb8 fabe
00000010: c71e ad3f 7cfd 613f ac14 3d3f 255c a73f
00000020: 37dc 08bf 7b90 a3be a20e 2cbf 27de 8fbf
00000030: 6fd7 1ebf 00e4 d5bf 6474 08bf e4d8 8b3e
00000040: 2d36 b03f 38c9 05be 8ea2 01bc cdbd df3f
00000050: c59f 65be a1c2 ddbf 3e46 81bf da91 393f
00000060: 96ad 4dbe 9a95 71bf 7e7f 6dbd 412f d73e
00000070: 83e8 86bf 879b fdbf dc82 1ebd 60d7 283f
00000080: e511 ffbe 2b5f 94be ee55 8f3f 4174 e8be
00000090: c548 83bf 1e1d 1240 6261 273f 599c cf3e
000000a0: 3cde b23f 7cba 74bf 5163 c53f acf3 a4bf
000000b0: ad57 ac3d 4505 8abf fcbc 853f 2d9e 3b39
000000c0: 4653 99bf 43d1 de3f 3aed 193f 29a2 cdbf
000000d0: c341 26be a124 55bf 27d8 14bf 2f6a e9bf
000000e0: 2604 5cbf 7f38 0fbe aa7b abbd 3e52 73be
000000f0: 9da8 6abf 89e1 403f 4fc2 943e cf7d af3f
00000100: 8902 b1bf f0f3 3dc0 5aec 26bf 3f44 3b3f
00000110: 1fbb 813e 88c8 803e dd22 42bf ff78 f03f
00000120: e839 f93f b735 59bf de6f e7bf f462 193d
00000130: 7865 bc3f c435 893f f6fd 0740 000e b6be
00000140: e984 e63c 5f82 72be 3c6f 35bc 4ac3 dbbc
00000150: be4f 29bf 773f 133f 6d1b 26c0 7a53 243f
00000160: ed0a 443f dbfe d3bf 2954 543f fdda 903c
00000170: a2be 55bc 5ee1 c93f f7b9 a4bf fe77 8dbe
00000180: e147 da3c 5a6a b93f 6c00 44c0 8aac 993f
00000190: ff75 cf3e 9716 a0bf 214f 9c3f 4af9 223e
000001a0: fcb7 fabe e4c7 603e 8356 4fbc ed31 dd3f
000001b0: ea63 45be c290 2e3f 1a5b 213f 094d ff3e
000001c0: 254c 4abe 1686 983d 7079 e63e 7d62 bf3e
000001d0: 51e4 b83b 6b1e 4ebf 91f5 35bf f8a8 d6bf
000001e0: 8eb2 fdbf 1fb7 6b3f 9201 ddbd 30bd 05c0
000001f0: d3c2 90bf 20bd 14bf 656a 25be b8c8 22be
00000200: 86be 803e 3e02 bdbf 3246 09c0 e76e e2bd
00000210: 5540 8b3e 5b7a 90bf b13f d43e afdc 9abf
00000220: 084b b83e fd80 22c0 0344 d23f 6223 54bf
00000230: 9ed3 1f3e 8125 8cbe 2d21 ef3f dd53 9ebe
00000240: 31e2 e6bf 8d21 553f 3a4b af3f 7ccb a0bf
00000250: 634d 763f 39f9 4fbf 29f7 1bc0 2bd5 cb3f
00000260: c38e 2abf e4ea 83bf 26b1 32bf b871 193f
00000270: f7b4 9c3e 908e 02bf 285f 6fbf e4ab 84be
00000280: 1ea3 f5bd f01f eebe 14eb 253f 00a7 513d
00000290: 9078 183f 77e0 603f 8b82 b5bf 94c0 fb3e
000002a0: 1994 0ac0 bcb3 f33e dbcc 9ebf a8c0 453f
000002b0: 516b b83f bf21 4fbf fc43 c73f 5363 233f
000002c0: 8e4a 49bf b429 cdbd cfce 55bf b5f1 e1bd
000002d0: 740c 1fbd d1b2 7ebf ad96 1fbf bf3d 5ebf
000002e0: 7eab 4d3f 5838 e33e 6a4d aa3f f0cd 1c3f
000002f0: 2672 30bd 6054 bcbf 1d81 26bf ac09 8fbf
00000300: 701a 8b3f 4da8 e0bf e884 adbf 89d4 2fbf
00000310: 142b 9fbf d0b1 90be c63a 2e3f c437 73be
00000320: 4824 eebe de92 6d3e d479 f53e cb18 833f
00000330: efdb 3ebf a2e1 85bf 8248 1d3f 15d2 d1bd
00000340: e86d 97bf 0685 a83f 4a86 043e 11fd e43e
00000350: 0f27 62bf 046c b23e fe9e 8ebf 6425 ab3f
00000360: 3698 32bd de7e adbf d38d e53d 9733 9b3f
00000370: 5f02 35be 23c8 98bf 514b 15bf 0840 0e40
00000380: dd45 903f dfe8 7d3e 7df7 18bf 692c 73bc
00000390: 9f90 bcbf ef3a 6d3f d778 5b3e d910 d93e
000003a0: 5a20 9cbe 9b04 b83f 523f dc3d df2a 63bf
000003b0: 3d28 74be 6df9 c63e c55c 5ebf b786 a53f
000003c0: fda4 093f f500 e5be 033a 493f bded 63be
000003d0: 4f34 50bf 8614 f0be 68a2 86be 5ee3 63be
000003e0: 4b37 4ebe 23a7 a4be 5c5f 62bf eed7 2ebf
000003f0: 85a5 e93f 6e31 61bf 1aa8 a3bf db54 d9be

u_bias.weight f4 [1889, 1]
0.49774286 1.7829262 0.6430443 0.16440357 1.3820169 0.7045543 -0.065360904 0.37439728
0.19850272 -0.8547158 1.6565058 -0.30482623 0.3141264 0.75504094 -0.5543072 0.070667766
0.4478128 0.7462846 -0.77919394 0.21629877 1.0124729 0.6030126 0.35339078 -0.22444864
-2.1458561 -0.59898716 0.873919 0.7618524 -1.2850885 -0.8770011 -0.8730088 0.9592904
-0.6782482 -0.9218302 -0.44090727 1.2221749 1.7436475 0.22117513 0.9478259 2.2701058
-0.02332114 0.4649618 1.7817849 1.2737327 2.244173 1.1904012 -0.10885652 0.4416368
0.97377694 1.5039426 -0.30072454 1.0203054 -1.0181402 0.08823117 -0.31220615 0.75157523
0.48160064 0.3132118 -1.0111196 -0.70542896 -0.2451728 -1.6633887 0.006970343 -0.34850085
1.4152639 0.4261954 0.07903255 -0.19634385 -0.93140084 -1.6159545 -0.59404725 0.5024844
0.98514104 0.6223386 0.5860246 1.1497076 -0.08799735 0.6637757 -1.3127657 0.46348292
0.40337503 0.7299776 1.0253109 -0.75338477 -0.25194114 -0.26450506 0.1790868 -0.734702
0.39325815 0.28875744 -0.0748017 0.35885406 -0.1509343 -0.7180645 -0.035151232 -0.70268124
0.5270737 0.95211774 -0.5896794 1.879901 -0.56610364 -0.16459417 1.2826561 1.1268837
0.15392719 -1.4534582 2.8657646 -0.08376844 1.3819159 -0.86220217 -0.28897718 1.1905372
-0.3748358 0.6132588 0.5374168 0.07763184 0.28220865 0.28748322 -0.4472817 0.5827065
1.2203705 -0.2489121 0.26164648 0.50433904 -0.48032823 -0.3798331 1.7057902 -0.62739307
-0.7356583 0.10664414 0.55571723 -0.64275414 0.18561524 0.6480965 -1.2253652 -0.98281044
0.01311526 -0.12269966 -0.37605047 -0.29139662 -1.1190922 0.112503365 0.2895214 -0.39955205
0.27626133 0.3610033 0.038266193 -1.6198461 1.4755583 0.61583793 0.45071995 0.22336453
-1.0568985 0.27821115 0.06180173 0.13471517 -0.6568264 0.026551608 0.2267976 0.37547246
-0.30634806 -2.0399208 -0.228258 -0.43191943 0.80363905 1.5038744 -0.81248003 0.5994167
0.09165938 -0.58998054 0.12069914 1.193745 0.66898453 -0.089746 -0.69781727 0.4041115
0.021486515 -0.3495678 0.45211202 -0.4197386 0.9853623 1.532217 0.26748958 0.09148611
-0.7410298 -0.0072589745 -0.29668334 0.41936904 -0.66271716 0.22329772 -1.4560434 -1.3240839
-0.60590327 1.9661672 0.31831977 1.0198059 2.3164 -0.005538838 1.5692654 -0.04877429
2.168183 -0.13604982 -1.1885546 0.19085425 0.099204704 0.5586311 -0.5330886 -0.44970405
1.5579693 -0.9508427 -0.67368245 -0.41778833 -0.3450685 0.98063445 -0.7573364 -1.5273143
0.18221618 0.3469938 0.44782153 -0.4350597 -1.6174769 0.5744656 -0.35200873 2.3873217
0.3802413 -1.3704815 -1.4114932 -0.8837141 0.25389847 0.41562542 0.5242828 0.5074427
0.5409985 1.3561485 0.22850248 -0.65800655 -0.9207652 0.38187814 0.8268464 -0.69597024
-0.056917977 0.33926922 1.8923097 -0.16128476 0.021696238 0.78171057 -0.5778447 -0.19972709
2.252856 2.1461568 1.00735 -1.164403 -0.06148274 1.1905814 1.4850699 -0.92270344
00000000: 27d8 fe3e ed36 e43f 8d9e 243f 6959 283e
00000010: eee5 b03f ac5d 343f f0db 85bd 00b1 bf3e
00000020: 4c44 4b3e a8ce 5abf 6208 d43f 2f12 9cbe
00000030: 2dd5 a03e 5d4a 413f 14e7 0dbf 43ba 903d
00000040: b847 e53e 820c 3f3f 4179 47bf 6d7d 5d3e
00000050: b698 813f 095f 1a3f a3ef b43e ddd5 65be
00000060: b555 09c0 3957 19bf 28b9 5f3f c208 433f
00000070: c87d a4bf 2583 60bf 817d 5fbf 0e94 753f
00000080: ada1 2dbf 10fd 6bbf 99be e1be 3a70 9c3f
00000090: d72f df3f bc7b 623e b8a4 723f 6a49 1140
000000a0: fa0b bfbc 790f ee3e 8711 e43f ac09 a33f
000000b0: 88a0 0f40 115f 983f 2bf0 debd 381e e23e
000000c0: 7249 793f 3181 c03f 91f8 99be 5e99 823f
000000d0: 6b52 82bf 8bb2 b43d 7cd9 9fbe 3c67 403f
000000e0: 5c94 f63e 4c5d a03e 5e6c 81bf fe96 34bf
000000f0: 940e 7bbe ece9 d4bf 7a67 e43b b46e b2be
00000100: 5e27 b53f 4936 da3e d1db a13d 5d0e 49be
00000110: 4970 6ebf 99d7 cebf 7b13 18bf d1a2 003f
00000120: 3432 7c3f 9551 1f3f b505 163f 9e29 933f
00000130: f437 b4bd 34ed 293f b508 a8bf a24d ed3e
00000140: 2c87 ce3e d0df 3a3f 633d 833f d3dd 40bf
00000150: 6efe 80be 356d 87be 8862 373e 6e15 3cbf
00000160: 2259 c93e 04d8 933e a231 99bd b8bb b73e
00000170: 858e 1abe 13d3 37bf bdfa 0fbd ebe2 33bf
00000180: 4dee 063f fdbd 733f 3bf5 16bf 99a0 f03f
00000190: 2bec 10bf 608b 28be 132e a43f ba3d 903f
000001a0: 179f 1d3e eb0a babf b068 3740 ca8e abbd
000001b0: 9fe2 b03f 48b9 5cbf d1f4 93be 8663 983f
000001c0: 7aea bfbe 87fe 1c3f 2694 093f 71fd 9e3d
000001d0: a77d 903e 0031 933e 1b02 e5be 412c 153f
000001e0: 1a35 9c3f d0e2 7ebe 87f6 853e 5d1c 013f
000001f0: 95ed f5be 7c79 c2be 5557 da3f d59c 20bf
00000200: 1a54 3cbf 3e68 da3d 7c43 0e3f 898b 24bf
00000210: ec11 3e3e a7e9 253f c4d8 9cbf 7799 7bbf
00000220: 63e1 563c f649 fbbd b089 c0be f031 95be
00000230: 6a3e 8fbf 2a68 e63d 263c 943e 1692 ccbe
00000240: 2072 8d3e 6dd5 b83e 03bd 1c3d 1e57 cfbf
00000250: 18df bc3f 8ea7 1d3f c4c4 e63e acb9 643e
00000260: 7348 87bf b171 8e3e d023 7d3d c6f2 093e
00000270: c625 28bf c282 d93c a13d 683e ed3d c03e
00000280: a7d9 9cbe 108e 02c0 77bc 69be 8b24 ddbe
00000290: 4abb 4d3f f57e c03f b1fe 4fbf 5f73 193f
000002a0: eab7 bb3d f708 17bf 1c31 f73d a3cc 983f
000002b0: 9242 2b3f c0cc b7bd 27a4 32bf b4e7 ce3e
000002c0: 7d04 b03c 8dfa b2be 3a7b e73e fae7 d6be
000002d0: b440 7c3f b01f c43f 65f4 883e 125d bb3d
000002e0: 21b4 3dbf b1dc edbb e1e6 97be 8ab7 d63e
000002f0: d5a7 29bf 28a8 643e a15f babf 957b a9bf
00000300: 7a1c 1bbf 5eab fb3f cffa a23e 0089 823f
00000310: e63f 1440 247f b5bb b0dd c83f 8dc7 47bd
00000320: 83c3 0a40 a550 0bbe 8f22 98bf 4c6f 433e
00000330: d62b cb3d 7302 0f3f 7f78 08bf 9c3f e6be
00000340: 8a6b c73f 6d6a 73bf 7476 2cbf 5ae8 d5be
00000350: d2ac b0be dc0a 7b3f cce0 41bf 097f c3bf
00000360: e196 3a3e 2ca9 b13e dd48 e53e 25c0 debe
00000370: 7c09 cfbf 2d10 133f 7d3a b4be e1c9 1840
00000380: fdae c23e f06b afbf cfab b4bf 163b 62bf
00000390: fbfe 813e dbcc d43e 6637 063f c4e7 013f
000003a0: e17e 0a3f 4696 ad3f 8efc 693e 1e73 28bf
000003b0: 45b7 6bbf 8885 c33e 35ac 533f 1b2b 32bf
000003c0: d322 69bd b2b4 ad3e 3437 f23f d527 25be
000003d0: 4fbc b13c 2f1e 483f a1ed 13bf 4285 4cbe
000003e0: cb2e 1040 a25a 0940 d8f0 803f 280b 95bf
000003f0: 53d5 7bbd f964 983f c516 be3f 4b36 6cbf
