Assignment -1/model/skipgram_neg_model.pth (torch, 32317 bytes, 2 tensors)

embedding_center.weight f4 [1889, 2]
0.5370232 0.743802 1.3427606 0.9500686 -0.43356973 -0.02985023 0.4993563 -1.1119034
1.4447173 0.28682378 0.8341024 0.8566887 0.72417253 0.51636946 0.7887789 -0.24154256
-1.9566512 -0.35905758 0.25313747 0.52470493 -0.37459666 1.4574264 0.20585251 -0.7830087
0.040055353 0.6031841 1.1178911 -1.6795862 -1.0157211 -0.18866417 0.778857 0.05565514
1.6551685 -0.25508344 1.7634827 1.2881294 0.044727467 -0.30196774 0.057070833 -0.003300867
0.32194608 0.2669643 0.66030234 -0.7763397 -0.20001927 -0.9540689 0.32863152 1.1872996
0.6631182 -0.63774145 0.7556412 -0.1345514 0.9970135 -0.8207872 1.8441445 -0.6197983
0.24833272 0.3308224 -0.52429765 -1.2224653 1.2215766 0.39561418 -0.65356076 -0.3663867
-0.09702179 -0.23465973 0.06856634 0.39293718 -0.3534781 -0.24520072 -1.3115046 -1.112979
0.99532217 0.33833513 0.646585 -1.7262414 -0.015229834 -1.2376478 -0.11513385 0.18639714
0.82691836 0.01390831 -0.2563636 -1.572443 2.0139463 0.029760089 -0.7247935 -1.4105802
-1.2343872 0.5319753 0.5796418 0.70232177 -0.50996876 1.558947 -1.5382831 1.1747748
0.044621903 0.085334964 0.62008625 0.8149791 -0.20841312 -1.1009675 -0.6644506 -0.41900626
0.3919044 0.96973336 -0.19764327 0.7765245 -0.81083626 2.7124646 -0.32107237 -1.3946275
-0.3202764 -0.5359489 -1.5555177 0.027259586 0.5561677 -1.969502 -0.85962945 0.3202992
-2.4764884 0.25394854 1.6751474 -2.3006895 -0.98851156 -0.0020263582 -0.9752182 -0.8582852
-1.746948 -0.64358747 -0.8590308 -1.7673748 1.6184878 0.48366845 -0.04843865 0.36818436
-2.112142 1.5627342 -0.97327644 -1.2660199 -0.33112052 -0.7829723 0.18764573 0.6846068
1.403569 0.084978044 2.0465486 -1.4769518 -1.220679 -1.8620002 0.44872957 -0.7192292
-0.28030965 -0.26993376 0.74995685 -0.5123937 0.10089885 0.19725972 -0.9344728 -1.7537438
0.6113691 0.1870949 0.26107424 -0.43330628 -1.1118714 1.0702963 -1.0822423 0.1300714
-0.004550005 0.091799565 0.65681016 -0.7546247 0.24280517 -1.4241803 -0.31751633 0.6157567
-1.715876 -0.7999254 0.5164411 0.19226792 -0.9061913 0.4728119 -0.6822535 -2.1893296
-0.8616224 -1.6971828 -1.6829978 -0.16565762 -1.0492382 -1.0184613 0.14488682 -1.3523946
0.59805596 -0.42283264 0.45346913 0.9519233 2.6559427 -0.7364705 -0.197997 -0.121086664
1.6284833 -2.276117 -1.1644497 1.0569103 0.9903819 0.76326483 -1.4968797 -0.18930455
-0.9475374 -1.6117418 -0.19285479 -0.47563395 -0.42983994 -0.50698364 0.032552168 -0.60630494
0.5626497 0.5364627 0.99507385 -0.48091552 -0.55826783 -0.7766729 -1.446486 -0.8993701
1.228147 2.3676133 0.12270337 -0.5445781 0.106920496 -0.2615611 -1.1457493 0.3918773
0.42971346 1.0925583 -1.2130783 -1.4359473 0.78286785 -1.089878 0.27275008 0.9616847
-0.21708578 2.285916 0.09835385 0.5538417 -0.4289944 -1.2148093 0.5935699 -0.12272192
0.5432142 1.4863793 -0.028479293 -0.21361634 -0.9892356 -0.2068595 -1.0603479 0.6463758
00000000: 5a7a 093f cf69 3e3f 94df ab3f b237 733f
00000010: dafc ddbe 7888 f4bc a1ab ff3e da52 8ebf
00000020: 7fec b83f 91da 923e bc87 553f f34f 5b3f
00000030: 5f63 393f ca30 043f 6aed 493f ef56 77be
00000040: 8c73 fabf 65d6 b7be 3c9b 813e 1053 063f
00000050: 22cb bfbe f38c ba3f 00cb 523e 4273 48bf
00000060: 1511 243d 466a 1a3f 0e17 8f3f aefc d6bf
00000070: 2603 82bf 2e31 41be 2c63 473f a5f6 633d
00000080: 90dc d33f 4c9a 82be cdb9 e13f 6de1 a43f
00000090: 2634 373d 849b 9abe 1bc3 693d 5c53 58bb
000000a0: 1ed6 a43e 8baf 883e 9309 293f 33be 46bf
000000b0: dad1 4cbe dc3d 74bf 6442 a83e 6ff9 973f
000000c0: 1dc2 293f 0643 23bf b471 413f d8c7 09be
000000d0: 473c 7f3f 1c1f 52bf ed0c ec3f 1aab 1ebf
000000e0: ef4a 7e3e 8e61 a93e 5f38 06bf be79 9cbf
000000f0: 9f5c 9c3f f18d ca3e c24f 27bf 0a97 bbbe
00000100: 5cb3 c6bd a44a 70be 826c 8c3d 102f c93e
00000110: 15fb b4be e615 7bbe 62df a7bf 1976 8ebf
00000120: 6fcd 7e3f 433a ad3e 9886 253f 7af5 dcbf
00000130: 8e86 79bc 3e6b 9ebf 4ccb ebbd e4de 3e3e
00000140: ecb0 533f aedf 633c 1742 83be d045 c9bf
00000150: 7fe4 0040 6ecb f33c 118c 39bf e48d b4bf
00000160: 6600 9ebf 892f 083f 6863 143f 5ccb 333f
00000170: 508d 02bf 938b c73f 76e6 c4bf 055f 963f
00000180: 75c5 363d 19c4 ae3d f9bd 1e3f 78a2 503f
00000190: 406a 55be 81ec 8cbf 6f19 2abf fd87 d6be
000001a0: b2a7 c83e 7240 783f ff62 4abe 4fca 463f
000001b0: f792 4fbf 0599 2d40 9963 a4be 2783 b2bf
000001c0: 45fb a3be f233 09bf 341b c7bf 7f4f df3c
000001d0: 0261 0e3f a418 fcbf ad10 5cbf 42fe a33e
000001e0: c97e 1ec0 8b05 823e 3b6b d63f 7f3e 13c0
000001f0: 180f 7dbf a6cc 04bb e6a7 79bf 94b8 5bbf
00000200: fe9b dfbf 26c2 24bf 71e9 5bbf 5639 e2bf
00000210: 9c2a cf3f 64a3 f73e 9b67 46bd a982 bc3e
00000220: 562d 07c0 ad07 c83f a528 79bf f10c a2bf
00000230: a188 a9be df70 48bf 3426 403e 6442 2f3f
00000240: 26a8 b33f f808 ae3d a7fa 0240 c20c bdbf
00000250: 363f 9cbf 0656 eebf e2bf e53e 681f 38bf
00000260: bf84 8fbe c234 8abe 2cfd 3f3f 3c2c 03bf
00000270: 0ea4 ce3d 74fe 493e 9c39 6fbf ad7a e0bf
00000280: af82 1c3f ce95 3f3e 86ab 853e 52da ddbe
00000290: cd51 8ebf 78ff 883f ea86 8abf 7031 053e
000002a0: 3518 95bb 6901 bc3d b624 283f 162f 41bf
000002b0: eba1 783e 8a4b b6bf 8091 a2be 3ba2 1d3f
000002c0: d3a1 dbbf e9c7 4cbf 7c35 043f e2e1 443e
000002d0: 27fc 67bf 6714 f23e 2aa8 2ebf fa1d 0cc0
000002e0: 4993 5cbf 493d d9bf 796c d7bf 27a2 29be
000002f0: 704d 86bf f15c 82bf 365d 143e 441b adbf
00000300: 321a 193f 857d d8be 1b2d e83e 3fb1 733f
00000310: f7fa 2940 5589 3cbf babf 4abe 49fc f7bd
00000320: 2472 d03f e7ab 11c0 b00c 95bf d648 873f
00000330: ab89 7d3f 5365 433f c199 bfbf 0dd9 41be
00000340: d091 72bf 8e4d cebf ba7b 45be 4b86 f3be
00000350: fb13 dcbe aec9 01bf 6c55 053d cd36 1bbf
00000360: d009 103f 9f55 093f 29bd 7e3f 8f3a f6be
00000370: a4ea 0ebf 09d4 46bf 7426 b9bf 1e3d 66bf
00000380: ec33 9d3f fa86 1740 e84b fb3d 7869 0bbf
00000390: 22f9 da3d 56eb 85be eaa7 92bf 24a4 c83e
000003a0: 6703 dc3e f3d8 8b3f 2646 9bbf 1fcd b7bf
000003b0: 076a 483f 1f81 8bbf e6a5 8b3e f830 763f
000003c0: bc4b 5ebe 734c 1240 be6d c93d 92c8 0d3f
000003d0: 27a5 dbbe df7e 9bbf 32f4 173f a155 fbbd
000003e0: 1610 0b3f ad41 be3f 684d e9bc 3ebe 5abe
000003f0: 8b3e 7dbf fad2 53be 7bb9 87bf e278 253f

embedding_outside.weight f4 [1889, 2]
-0.627867 0.27352765 -0.29077208 0.025055127 -0.23348567 1.1760788 0.9049316 0.8556524
0.0046956413 -0.23663071 -0.05682782 0.15825492 -1.3205944 -0.5540194 2.3299205 1.4004815
-1.2333819 -1.6154453 0.54475874 -0.43537992 -0.56690204 0.72829133 -0.7243543 -0.1752116
0.069691546 0.11420843 0.17165478 0.20687348 -1.5166522 0.3705404 2.0728354 -0.46020272
-1.2594149 0.1945664 0.09113059 -0.087196164 0.083687074 -1.0629606 -0.34500557 -0.6629694
0.51682585 -0.5427351 2.0280683 -0.44282365 -0.18044564 0.21648683 0.94641775 -0.21367149
0.19492249 2.5558877 -0.3297902 0.91138923 0.30038813 0.5284461 -0.96415305 1.949012
0.785355 0.7950204 0.64276373 0.7000549 1.1030473 0.5121295 -1.1239659 0.2859767
-0.91767216 0.99823767 -1.1487626 1.1059985 0.6639353 0.5519959 -0.627178 0.9156961
-0.21140139 0.6108902 0.49596637 0.707048 0.60451835 0.5730716 0.07345432 0.2525485
-0.0600846 -0.1443468 -0.9664053 -0.54580086 1.215091 -0.6442449 -1.4367156 -0.010719226
0.33206016 0.6634106 -0.116671525 -0.28556263 -1.1026393 -0.4007061 -0.5917491 0.9059063
-0.084861286 0.6354089 -0.59609157 -2.0608706 1.1311944 -1.1676006 1.3193139 -0.4689262
1.0574712 -0.1724801 -0.4935279 -1.1563966 -0.1881186 0.25271556 -0.08749398 0.5695138
-1.0467895 -0.7155992 1.001726 -0.25309417 -0.25406533 -0.7189118 -0.69461364 -0.3968338
-0.66147447 -1.3617264 0.2733063 0.015945455 0.27507728 -0.4272128 0.32919198 -2.1488736
0.8294599 -0.83133525 -0.80552346 -1.4492621 0.16230898 -0.32838973 0.16896753 -1.9493046
-0.29136378 -0.22794728 0.3361056 -1.3022313 1.218485 0.14994161 -0.86119527 0.01069999
0.81569064 1.7771899 0.35995996 -0.9953951 0.5560174 0.2404918 -0.26092276 -0.50927347
1.2228637 0.3003999 -0.85924697 0.7850923 -2.1281428 -1.7386005 0.057995196 0.40995714
2.2504997 -1.5465717 0.19775493 -0.49447414 0.4324485 -0.5075104 1.1420456 -2.1407712
-1.3324095 0.18639575 -0.75179 -0.87689537 0.18097854 0.53712434 -1.0662749 1.9926126
-0.43998593 0.1981602 0.1872295 -0.09660322 0.2670588 -1.7860429 -0.40239093 1.4636786
0.109326735 -0.8778606 1.7722595 -1.8847564 -0.100804895 1.1072646 0.7831398 -0.0675307
0.70853734 -1.10394 -0.34981808 1.131729 0.06588185 -0.17945333 1.5249672 0.020273214
-2.2188666 -0.4797822 0.1468706 -0.26555756 0.68373406 -0.47491783 -0.9024755 0.6954252
-0.25721115 -0.7651902 1.0734642 0.064182304 0.7445994 0.48204976 1.9209318 -0.20952593
-0.0024576525 0.18305305 -1.3652394 -0.042164553 1.7386655 -1.4342703 -0.8552135 0.97447973
-1.2069114 0.5772988 -1.7173337 1.0133932 -0.04823464 1.0333054 -0.7044216 -0.25870782
0.5855098 0.5741122 1.9092532 1.5073469 0.39379117 0.48820314 -0.57932144 -0.50383615
-1.7403682 0.012683694 -0.14316596 -0.48774588 1.6461807 -0.3115682 -0.73898005 -0.6562122
-0.40073392 -0.20303471 0.6296973 0.9457084 -0.005579775 -2.4008634 0.9188668 -0.47349086
00000000: e4bb 20bf d10b 8c3e 14e0 94be 6940 cd3c
00000010: de16 6fbe c089 963f 99a9 673f 090c 5b3f
00000020: e5dd 993b 524f 72be 4ac4 68bd 940d 223e
00000030: 3d09 a9bf 37d4 0dbf 6b1d 1540 fa42 b33f
00000040: 75df 9dbf e9c6 cebf 4f75 0b3f 1eea debe
00000050: 7e20 11bf 4d71 3a3f 496f 39bf ab6a 33be
00000060: 71ba 8e3d 1ce6 e93d 45c6 2f3e a4d6 533e
00000070: a921 c2bf 79b7 bd3e 56a9 0440 b19f ebbe
00000080: 8234 a1bf 6a3c 473e ada2 ba3d e793 b2bd
00000090: 2164 ab3d 180f 88bf 92a4 b0be 5db8 29bf
000000a0: b34e 043f b0f0 0abf dfcb 0140 c8b9 e2be
000000b0: bec6 38be b9ae 5d3e 6f48 723f b3cc 5abe
000000c0: c399 473e aa93 2340 43da a8be ce50 693f
000000d0: 79cc 993e 3e48 073f bcd2 76bf 3a79 f93f
000000e0: 060d 493f 7586 4b3f 2a8c 243f cc36 333f
000000f0: a730 8d3f eb1a 033f 1dde 8fbf 8a6b 923e
00000100: 90ec 6abf 818c 7f3f a70a 93bf 5c91 8d3f
00000110: aaf7 293f 9a4f 0d3f bd8e 20bf 0f6b 6a3f
00000120: 9b79 58be 4d63 1c3f 4eef fd3e 1901 353f
00000130: b7c1 1a3f d2b4 123f 386f 963d 094e 813e
00000140: 451b 76bd a6cf 13be 5666 77bf 9bb9 0bbf
00000150: 1a88 9b3f 3ced 24bf 4ce6 b7bf b19f 2fbc
00000160: ca03 aa3e 47d5 293f 7bf1 eebd 4435 92be
00000170: 4923 8dbf 5a29 cdbe de7c 17bf 7ae9 673f
00000180: c1cb adbd 28aa 223f 7599 18bf 4ee5 03c0
00000190: faca 903f f073 95bf 47df a83f 1817 f0be
000001a0: 375b 873f a09e 30be b0af fcbe ce04 94bf
000001b0: 2aa2 40be ef63 813e 0b30 b3bd a8cb 113f
000001c0: 33fd 85bf 8231 37bf 8f38 803f 8f95 81be
000001d0: da14 82be 9b0a 38bf 33d2 31bf cd2d cbbe
000001e0: 6456 29bf 0d4d aebf ceee 8b3e 0ba0 823c
000001f0: eed6 8c3e a3bb dabe da8b a83e 2587 09c0
00000200: 7c57 543f 63d2 54bf c936 4ebf 6c81 b9bf
00000210: 5334 263e b322 a8be d305 2d3e d082 f9bf
00000220: a22d 95be 036b 69be 0916 ac3e 84af a6bf
00000230: 51f7 9b3f 4b8a 193e 4b77 5cbf 034f 2f3c
00000240: 1ad1 503f f57a e33f ac4c b83e 37d2 7ebf
00000250: 2857 0e3f 7b43 763e ab97 85be bf5f 02bf
00000260: cc86 9c3f 04ce 993e 9cf7 5bbf cffb 483f
00000270: 7e33 08c0 768a debf 5f8c 6d3d e7e5 d13e
00000280: 3008 1040 10f6 c5bf 4580 4a3e b72b fdbe
00000290: e469 dd3e 34ec 01bf 8d2e 923f 6502 09c0
000002a0: 658c aabf 87de 3e3e 4f75 40bf 377c 60bf
000002b0: 7052 393e fb80 093f b27b 88bf ee0d ff3f
000002c0: d645 e1be 82ea 4a3e 17b9 3f3e e9d7 c5bd
000002d0: eebb 883e 0e9d e4bf 2f06 cebe d259 bb3f
000002e0: b2e6 df3d 79bb 60bf 66d9 e23f b33f f1bf
000002f0: cc72 cebd d9ba 8d3f da7b 483f 894d 8abd
00000300: b462 353f e84d 8dbf 5b1b b3be 7fdc 903f
00000310: 10ed 863d 9dc2 37be 2032 c33f 0314 a63c
00000320: e901 0ec0 03a6 f5be 3f65 163e 29f7 87be
00000330: 3209 2f3f 6e28 f3be a208 67bf 6307 323f
00000340: 2eb1 83be 81e3 43bf 4667 893f 0372 833d
00000350: 119e 3e3f 3acf f63e 18e1 f53f f78d 56be
00000360: 9110 21bb 4272 3b3e 2ac0 aebf bdb4 2cbd
00000370: 978c de3f 2b96 b7bf 46ef 5abf 8177 793f
00000380: 137c 9abf dbc9 133f 97d1 dbbf deb6 813f
00000390: b091 45bd 5a43 843f f954 34bf 5a75 84be
000003a0: f8e3 153f 04f9 123f 6962 f43f bef0 c03f
000003b0: ff9e c93e c3f5 f93e 694e 14bf 68fb 00bf
000003c0: 63c4 debf 45cf 4f3c 199a 12be d4b9 f9be
000003d0: 0db6 d23f de85 9fbe cc2d 3dbf 86fd 27bf
000003e0: ff2c cdbe 55e8 4fbe d833 213f f219 723f
000003f0: 8cd6 b6bb bfa7 19c0 db3a 6b3f 656d f2be
