Assignment -1/model/skipgram_neg_model.pth (torch, 32317 bytes, 2 tensors)

embedding_center.weight f4 [1889, 2]
0	0xbd3e8817	-0.046516504
1	0xbf065106	-0.5246738
2	0xbf464289	-0.77445275
3	0xbf6a76fa	-0.91587794
4	0xc00da48d	-2.2131684
5	0xbf1fac00	-0.62371826
6	0x3d9eaa4b	0.077473246
7	0xbedcbfdb	-0.43115124
8	0x3ea29a19	0.31758192
9	0xbfc9f981	-1.5779268
10	0xbf813272	-1.009352
11	0xbeb3c656	-0.35112256
12	0xbf64142a	-0.8909327
13	0xbe85c156	-0.26124066
14	0x3dec5647	0.115398936
15	0x3e253872	0.16134813
16	0xbf62756c	-0.8846042
17	0xbeb4c228	-0.3530438
18	0x3f6c2cab	0.9225566
19	0xbedce38c	-0.43142354
20	0x3f90355f	1.1266288
21	0x3eb218ea	0.34784633
22	0xbece91f8	-0.4034574
23	0xbfa4532f	-1.2837886
24	0xc02133b4	-2.5187807
25	0x3fbba84f	1.4660739
26	0x3fa1e6d9	1.2648574
27	0x3f6d3abd	0.9266775
28	0x3f06f0dd	0.5271128
29	0xbe960d6b	-0.29307112
30	0x3ec89117	0.39173195
31	0xbfbe3202	-1.4859011
32	0xbfc02d0e	-1.501375
33	0x3f0405ba	0.5157124
34	0x3f9298f7	1.1452931
35	0x400c7856	2.1948447
36	0xbfc1bc87	-1.5135659
37	0xbf8cdc7e	-1.1004789
38	0x3f4b9d76	0.7953714
39	0xbf1e6c12	-0.6188365
40	0x3f0de836	0.5543245
41	0x3edd0f40	0.43175697
42	0xbdaad814	-0.08341995
43	0x3eb90ac3	0.36141023
44	0x4008fdba	2.1404862
45	0x3fa71a8a	1.3054974
46	0xbf14e285	-0.5815814
47	0xbfac4e36	-1.3461368
48	0x3f50af13	0.8151714
49	0x3c402f94	0.0117300935
50	0x3f7c45be	0.9854392
51	0x3fb59373	1.4185623
52	0xbf8ce376	-1.1006916
53	0x3fb4b3e3	1.4117397
54	0xbfc41184	-1.5317845
55	0xbf8c2b12	-1.0950644
56	0x3edcdc44	0.431368
57	0x3e7188a8	0.23587286
58	0xbfbea79e	-1.4894903
59	0x3c1bc5c2	0.009507598
60	0x3ea22a59	0.31672934
61	0x3dd7bb99	0.10533828
62	0x3f092090	0.5356531
63	0x3ea41977	0.32050678
64	0x3e159f53	0.14611559
65	0x3fb3224d	1.3994843
66	0xbeba0c39	-0.3633745
67	0xbf895dc5	-1.0731741
68	0xbf752a31	-0.95767504
69	0xbfafec8f	-1.3744067
70	0x3d9b9248	0.0759626
71	0xbe471854	-0.19442874
72	0xbe95f68b	-0.2928966
73	0x3fa58ce1	1.2933618
74	0xbf449853	-0.7679493
75	0xbf448e5b	-0.7677972
76	0x3e18acec	0.14909714
77	0x3d16ca18	0.036813825
78	0xbe91f709	-0.28508785
79	0xbfbd086e	-1.4768198
80	0x3fccc2cd	1.5996948
81	0x3fb6ce42	1.4281695
82	0xbf2e3b70	-0.68059444
83	0xbe0cb06d	-0.13739176
84	0xbeef90a8	-0.4679005
85	0xbf4ba026	-0.7954124
86	0x3f86b066	1.0522583
87	0xbca8955b	-0.02057903
88	0xbedffcb0	-0.43747473
89	0x3f8e670e	1.11252
90	0x3eb41522	0.35172373
91	0xbfd06061	-1.6279413
92	0xbf911335	-1.1333987
93	0xbe212659	-0.15737285
94	0x3dae4285	0.08508781
95	0x3e780472	0.24220446
96	0x3f60f909	0.8788
97	0xbf898ef9	-1.0746757
98	0x3fceb2ce	1.6148317
99	0xbfa9d912	-1.326937
100	0xbfd7e9ed	-1.6868263
101	0x3fd3a382	1.6534274
102	0x3fb3c995	1.4045893
103	0x3e545d3a	0.20738688
104	0xbee4ca4f	-0.446856
105	0x3f8a8069	1.0820438
106	0x3ef05079	0.46936396
107	0xbd083767	-0.03325596
108	0x40025a52	2.0367627
109	0x3d09c8ea	0.033638872
110	0x3cb1215e	0.021622356
111	0x3d9bd355	0.07608668
112	0xbf8f8d71	-1.121504
113	0xbda03249	-0.07822091
114	0x3df862d8	0.12128228
115	0x3fdc98fe	1.723419
116	0xbf806f33	-1.0033935
117	0xbf446784	-0.7672045
118	0xbf09377c	-0.5360029
119	0x3cabd0d2	0.020973597
120	0xbf580813	-0.8438732
121	0x3f316d3b	0.693073
122	0xbf82b064	-1.021008
123	0x3e840ba2	0.25790125
124	0xbc6b1579	-0.014348381
125	0xbe70f989	-0.2353269
126	0x3e5e99b5	0.21738322
127	0x3f952933	1.1653198
128	0xbf084fac	-0.5324657
129	0x400d73f1	2.2102015
130	0x3fca5a02	1.5808718
131	0xbf765f7f	-0.96239465
132	0x3f4a332e	0.78984344
133	0x3f08e895	0.5347989
134	0xbfbfe174	-1.4990678
135	0x40082f3f	2.1278837
136	0xbf89040b	-1.0704359
137	0x3dd8274e	0.10554372
138	0xbe999e24	-0.30003464
139	0xbee6adb4	-0.450544
140	0x3e2ab5d8	0.1667093
141	0xc011816a	-2.2735238
142	0xbfb10374	-1.3829179
143	0x3fd1d94a	1.6394436
144	0xbe17252d	-0.14760275
145	0xbf0c7b2e	-0.5487546
146	0x3ea2ccf6	0.31796998
147	0x3f8114f2	1.0084517
148	0x3fa8e049	1.3193446
149	0x3eaf1b3e	0.34200472
150	0x3f10b5da	0.56527483
151	0xbe3ea76f	-0.18618558
152	0x3e6002cc	0.21876067
153	0xbeed8769	-0.46392372
154	0x3f368490	0.71296024
155	0xbe0a973c	-0.13534254
156	0x3f8fb7d1	1.1227971
157	0x3f700cc3	0.9376947
158	0xbfa8a88d	-1.3176438
159	0xbe33ce5a	-0.17559186
160	0x3f23f75d	0.6404932
161	0xbfa87be8	-1.3162813
162	0x3f2954ba	0.6614491
163	0xbea3bfb9	-0.3198221
164	0xbf4cc918	-0.79994345
165	0x3eb0940e	0.34487957
166	0xbe36bcdc	-0.17845482
167	0xbcecd511	-0.028910192
168	0xbf7175e0	-0.9432049
169	0x3fd9f287	1.7027138
170	0x3f8f6998	1.12041
171	0xbcf86f12	-0.0303264
172	0x3f73cbe1	0.9523297
173	0x3f061668	0.5237794
174	0x3e6f3580	0.23360252
175	0xbf08478e	-0.53234184
176	0xbec7214d	-0.38892594
177	0xbf7bdefe	-0.98387134
178	0x3ec80de2	0.39073092
179	0x3ea02208	0.31275964
180	0xbfd2f046	-1.6479576
181	0xbf364e83	-0.7121355
182	0x3e0b7d43	0.13622002
183	0x3f9b74aa	1.2144978
184	0x3f09ec4f	0.53876203
185	0xbf3f994e	-0.748433
186	0x3f66da36	0.90176713
187	0xbeb4c198	-0.3530395
188	0xbfd8c103	-1.6933903
189	0xbf00ea40	-0.5035744
190	0x3f783257	0.9695181
191	0xbfbd822a	-1.4805348
192	0x3f41d437	0.7571444
193	0xbf8eddfd	-1.1161495
194	0x3fbecdfd	1.4906613
195	0x3f3038c5	0.68836623
196	0x3f136c09	0.57586724
197	0xbf980051	-1.1875097
198	0xbee74110	-0.45166826
199	0xbf7fdfe0	-0.9995098
200	0xbf406474	-0.7515328
201	0x3de94865	0.11390761
202	0xbf5773c3	-0.84161013
203	0x3ef87eb1	0.48534158
204	0x3fa64f17	1.2992886
205	0xbfc28271	-1.5196058
206	0xbf48d273	-0.7844612
207	0x3f302e11	0.6882029
208	0xbfca1036	-1.5786197
209	0xbc893ddf	-0.016753135
210	0xbfc32d7b	-1.5248255
211	0xbf2f1071	-0.6838446
212	0xbfa20b34	-1.2659669
213	0x3fbb4f6c	1.4633613
214	0xbe42c0f9	-0.19018926
215	0x3edae4cc	0.42752683
216	0x3e495b63	0.19663768
217	0x3d5cac66	0.05387535
218	0x3ec758a1	0.38934806
219	0x3f312ca4	0.6920874
220	0x3f62a171	0.8852759
221	0xbe5c43fc	-0.21510309
222	0xbf01f1e5	-0.50759727
223	0x3ea5de86	0.32396334
224	0x3e12e5de	0.143455
225	0x3fc06801	1.503174
226	0x3f69ecce	0.9137696
227	0x3eb570c8	0.35437608
228	0x3e939718	0.28826213
229	0x3f9d3b9d	1.2283818
230	0x3fb8ce6b	1.4437994
231	0x400f5329	2.2394507
232	0x3ea5658a	0.3230403
233	0x3f8ecd2b	1.1156362
234	0xbf51f26f	-0.8201055
235	0xbdf9f959	-0.122057624
236	0xbf62a2fb	-0.8852994
237	0xbe59484d	-0.21218987
238	0x3fd0f554	1.6324868
239	0x4006f7a7	2.1088655
240	0x3f2d251e	0.6763476
241	0xbf1432c4	-0.5788996
242	0x3f7fc2f6	0.9990686
243	0xbf3cfa66	-0.7381958
244	0xbf06ed73	-0.5270607
245	0xbf8ec0c0	-1.1152573
246	0xbdd0f802	-0.10203554
247	0xbb5f112a	-0.003403733
248	0xbf8b28ed	-1.0871865
249	0x400730cf	2.112354
250	0x3eaa0c4f	0.33212516
251	0x400a0658	2.1566372
252	0x3f4328b4	0.76233983
253	0xbda2df16	-0.079527065
254	0x3f24ccf1	0.64375216
255	0xbee8397f	-0.45356366

embedding_outside.weight f4 [1889, 2]
0	0x3f9094bd	1.1295391
1	0xbe0f4260	-0.13990164
2	0xbf370a7b	-0.71500367
3	0x3ea2e346	0.3181402
4	0xbf30ddf9	-0.69088703
5	0xbe579f80	-0.21056938
6	0x3eb2a0f0	0.3488841
7	0xbfaff3f8	-1.3746328
8	0xbeeaddb9	-0.45872286
9	0x3ff81669	1.9381839
10	0x3f530584	0.8243029
11	0x3ee852d2	0.45375687
12	0x3fd8654d	1.6905915
13	0xbfb27d19	-1.3944427
14	0x3eca70e8	0.39539266
15	0x3fa0701d	1.2534214
16	0x3f8537dd	1.0407673
17	0x3f994404	1.1973882
18	0x3edc75e1	0.43058684
19	0x3f1fb8a9	0.62391144
20	0x3f560fe4	0.83618
21	0xbf21fddd	-0.6327799
22	0x3e05d407	0.13069163
23	0x3e8f2b73	0.27962837
24	0x3bf81c8e	0.0075717634
25	0xbf3aaa91	-0.72916514
26	0x3f8757eb	1.0573705
27	0x3f8650e0	1.0493431
28	0x3ea6d8a8	0.3258717
29	0x3ec239a0	0.3793459
30	0xbee33f6b	-0.44384322
31	0xbf177b97	-0.5917296
32	0xbfe9f572	-1.8278029
33	0xbedcb020	-0.43103123
34	0xbf832b67	-1.024762
35	0x3f84bc58	1.0369978
36	0xbf8ca254	-1.0987039
37	0x3e3f262c	0.18666905
38	0x3d809479	0.06278319
39	0x3f1ac650	0.6045885
40	0xc0091ffb	-2.142577
41	0xbe5b9d45	-0.21446712
42	0xbf8e5081	-1.1118318
43	0xbe495e88	-0.19664967
44	0x3fb91390	1.4459095
45	0x3cd7bec9	0.02633609
46	0xbf43eb7b	-0.7653119
47	0xbf37f387	-0.7185597
48	0x3fb20031	1.3906308
49	0x3e87c614	0.2651831
50	0x3f8cb846	1.0993736
51	0x3e105e5c	0.14098495
52	0x3ec966f8	0.3933637
53	0x3e693a2b	0.22776096
54	0xbf003efc	-0.50096107
55	0x3f012c2a	0.50458014
56	0x3ed3dca1	0.41379264
57	0xbe67678f	-0.22598098
58	0x3f0fc2dd	0.5615671
59	0xbeb18019	-0.34668043
60	0x3f34c090	0.7060633
61	0xbd4e4f51	-0.05036861
62	0x3e2c1302	0.16804126
63	0xbfb65f45	-1.4247824
64	0xbdfc354d	-0.12314854
65	0x3f23ccf7	0.63984627
66	0xbdc4741a	-0.09592457
67	0x3eb65483	0.35611352
68	0x3eaa016a	0.33204204
69	0xbfbe3f04	-1.4862981
70	0xbfa5f3af	-1.2964991
71	0x402b6419	2.6779845
72	0x3f30ab96	0.6901182
73	0x3da24a6d	0.07924352
74	0x3f8b030d	1.0860306
75	0x3fa061d7	1.2529858
76	0x3f5ad550	0.8548174
77	0x3f8230ec	1.017118
78	0x3f054c6d	0.5206974
79	0xbfd77f7a	-1.6835778
80	0x3f1c4665	0.61044914
81	0x3f33e46c	0.7027042
82	0xbf898e29	-1.0746509
83	0xbec78560	-0.38968945
84	0x3e99d85b	0.3004788
85	0xbe97e234	-0.29664767
86	0xbfb63ef7	-1.4237965
87	0xbf8e5043	-1.1118244
88	0xbdc0eb43	-0.094198726
89	0x3fbd25d5	1.477717
90	0xbf2666c0	-0.65000534
91	0xbe47205d	-0.1944594
92	0xbf86bb94	-1.0525994
93	0xbe2ac7d2	-0.16677788
94	0xbfc3b975	-1.5290972
95	0x3f44c1e6	0.76858366
96	0x3ee9f1d3	0.4569231
97	0x3f80b2c0	1.005455
98	0xbf27042f	-0.6524076
99	0x3eb50d77	0.35361835
100	0x3f60ba45	0.87784225
101	0x3f0b1216	0.5432447
102	0xbf0342b8	-0.5127368
103	0xbd3304bc	-0.043705687
104	0xbf70d22a	-0.94070685
105	0xbf21e6d3	-0.63242835
106	0x3f3b5e7e	0.7319106
107	0x3df0ee5f	0.11764216
108	0xbe887e5e	-0.2665891
109	0xbe7ee013	-0.24890165
110	0x3fa16eae	1.2611902
111	0x3f7fc9a3	0.9991705
112	0x3f65aacb	0.89713734
113	0x3f686981	0.90785986
114	0x3d17cddf	0.03706157
115	0xbfdb66ee	-1.7140787
116	0x3dd0c71f	0.10194229
117	0xbf589109	-0.84596306
118	0x3fe3adcc	1.7787414
119	0xbf3d809d	-0.74024373
120	0x3d17c72b	0.037055176
121	0x3df05cb7	0.11736434
122	0x3f37d3f4	0.7180779
123	0x3eed8264	0.46388543
124	0x3f36b0cc	0.7136352
125	0x3d468034	0.048462108
126	0x3f42b9bc	0.7606466
127	0x3f916452	1.135874
128	0x3f377dd0	0.7167635
129	0x3fe23f0b	1.7675489
130	0x3efb6fb1	0.4910865
131	0x3f3fe3d0	0.7495699
132	0x3f6a5038	0.91528654
133	0xbf2cfb22	-0.675707
134	0x3f900cae	1.125387
135	0xbe9d387b	-0.30707154
136	0x3fde841d	1.7384068
137	0xbf6df5d5	-0.92953235
138	0xbd9baa65	-0.076008596
139	0xbdba7b3e	-0.09105538
140	0xbe85cdcb	-0.2613357
141	0x3f2bfd59	0.6718345
142	0xbfe2786c	-1.7693
143	0xbeb0bf36	-0.34520882
144	0xbf10c25e	-0.5654658
145	0x3f1f6a65	0.6227172
146	0xbdcd69af	-0.10029923
147	0x3f1c23fc	0.6099241
148	0xbf5762c9	-0.8413511
149	0x3f8bcedc	1.0922503
150	0xbf4f41cd	-0.8095978
151	0x3f8b99d7	1.0906323
152	0xbe0a4eaf	-0.13506578
153	0x3e4033b8	0.18769729
154	0x4001a714	2.0258226
155	0xbfe94279	-1.8223411
156	0xbfeaac0a	-1.8333752
157	0xbe846f19	-0.2586601
158	0xbe882883	-0.26593408
159	0xbfc68f09	-1.5512401
160	0x3f2d170f	0.6761331
161	0xbf44e863	-0.76917094
162	0xc002783a	-2.038588
163	0x3d2646ed	0.040594984
164	0x3efbdfbc	0.49194133
165	0xbe845302	-0.2584458
166	0xbf5d5cd3	-0.86469764
167	0xbec69434	-0.38784945
168	0x3fae32c3	1.3609241
169	0x3f31b2ba	0.6941334
170	0xbfab0562	-1.3361018
171	0x3f97b316	1.1851528
172	0xc079f51c	-3.9055853
173	0xbf1a7c41	-0.60345846
174	0xbf4dbec8	-0.80369234
175	0xbf55beb3	-0.8349411
176	0xbe553e48	-0.2082454
177	0x3fca45b7	1.5802525
178	0x3ea02c72	0.3128391
179	0xc01941d8	-2.3946438
180	0x3d837179	0.064181276
181	0x3e888df8	0.26670814
182	0xbfae7c8e	-1.3631761
183	0x3f25a845	0.64709884
184	0xbe894824	-0.2681285
185	0xbd7ef592	-0.062245913
186	0xbfe34187	-1.7754372
187	0xbef3d23b	-0.4762133
188	0x3eccaa3c	0.3997363
189	0xbe98a65e	-0.29814428
190	0x4018f2af	2.3898122
191	0xbf158591	-0.5840693
192	0x3b2ca12a	0.0026341178
193	0x3ecdf4ec	0.40225923
194	0xbee7f0d4	-0.45300925
195	0xbf9f5c41	-1.2450029
196	0x3fa893e0	1.3170128
197	0x3f33da81	0.70255286
198	0xbf190138	-0.59767485
199	0x3f40130c	0.75029063
200	0xbf3d6211	-0.7397776
201	0xbf1a26a9	-0.6021524
202	0xbf358114	-0.7090008
203	0xbf998dfa	-1.1996453
204	0x3f16d616	0.5892042
205	0x3e5b3e96	0.21410593
206	0x3ea6fc26	0.3261425
207	0x3e5b2aa7	0.2140299
208	0xbf23f6df	-0.6404857
209	0x3f9cd19f	1.2251471
210	0x404e69f9	3.225218
211	0xbfc6f89f	-1.5544623
212	0x3f934322	1.1504862
213	0x3f2b8eaf	0.6701459
214	0xbeec3659	-0.46135214
215	0x3f3573a3	0.7087957
216	0x3ef2ae42	0.47398573
217	0x3f4b8b67	0.79509586
218	0xbe3e4aa6	-0.18583164
219	0x3f8f484b	1.1193937
220	0x3e1949e4	0.14969593
221	0x3e912325	0.28347126
222	0xbdb89b18	-0.09013957
223	0x3fe37708	1.77707
224	0xbf110a06	-0.5665592
225	0xbe596c05	-0.21232612
226	0x3f8b3b1d	1.0877415
227	0x3f3be7fe	0.73400867
228	0x3f4fe7d1	0.812131
229	0x3f794475	0.9737008
230	0x3f400638	0.7500949
231	0x3f04ccd5	0.5187505
232	0x3fe3805d	1.7773548
233	0x3f5c90ba	0.86158335
234	0x3f2d3d3d	0.6767157
235	0xbf79510b	-0.97389287
236	0xbc7a1d9a	-0.015265847
237	0xbed5e940	-0.41779518
238	0xbe20c5df	-0.15700482
239	0xbed1defb	-0.40990433
240	0xc0207dbc	-2.5076742
241	0x3dc334cd	0.09531555
242	0x3fac9cb8	1.3485327
243	0x3fac9ae9	1.3484775
244	0x3e7b1338	0.2451905
245	0xbfb994b4	-1.4498506
246	0xbf125a1c	-0.57168746
247	0xbfb50c8b	-1.4144453
248	0x3eefed5b	0.46860775
249	0xbff2ecef	-1.8978556
250	0x3dabd392	0.08389963
251	0xbf9f0573	-1.2423538
252	0xbffeb23e	-1.9898145
253	0x3ef1a497	0.47195885
254	0xc00e7749	-2.2260306
255	0x3e19413c	0.14966291
