Assignment -1/model/skipgram_model.pth (torch, 32285 bytes, 2 tensors)

embedding_center.weight f4 [1889, 2]
-0.23515081 -0.09063881 -0.5766147 1.0745966 -0.4594187 -0.2616476 -0.56615657 -0.11692196
-0.22809286 -0.6336315 -1.808611 -0.14163986 -1.1420527 -0.8036717 1.4742041 -0.3526779
-0.5348455 -1.1526845 0.97085035 -0.383322 -0.6524257 -1.6374536 0.79492855 0.14588456
0.27494916 -0.11557927 -0.69477063 0.06971897 -1.2442842 -0.39389017 1.0662465 1.6708304
-1.1087977 -1.3209683 -2.5582314 0.17553262 -0.0056792097 -0.20768404 0.9277068 0.7447915
0.11203527 -2.168698 2.5171595 0.27830097 -0.19033639 -0.78672594 0.4247699 -1.4354235
-0.8566929 -0.7775477 0.55566615 -0.8446199 0.32732075 1.1718562 -0.09895766 -0.10890446
-1.3312399 1.0392011 0.92287874 -0.4085644 0.4400137 -0.7624323 1.501602 -0.66791034
0.08073437 -0.91202646 -0.34107253 -0.40871453 -1.551239 -0.8357066 -0.27799097 -2.6150217
1.2667601 -0.3624543 -0.06508513 0.31887054 -0.08225759 -1.0762452 0.2233161 1.3065835
0.08967314 -2.1323488 1.4359522 0.6172446 0.45726678 -0.20662405 -0.24553758 0.8454616
0.9533423 -0.46928775 0.4421431 -2.0409837 0.70252615 -1.0970682 -1.3439382 0.7663289
-1.2642454 -1.6174979 0.49159878 0.47315335 0.10511935 0.0795271 -1.0128278 1.2655245
-1.7807233 1.1647516 -0.81886053 -0.47016254 0.0035744805 -0.44031343 -0.16505633 -1.2249936
-0.4192594 0.5695865 0.48281494 -0.46284068 0.26435086 1.492716 -0.54536235 -0.5138186
1.823751 0.65033865 -0.8080955 0.6294536 2.0364523 1.1167687 1.021925 1.4807993
-0.6323321 -1.1910539 0.86247474 -1.1530393 -0.44597644 0.2742965 1.5169094 -0.04237873
0.6314623 0.9749363 -0.87696344 0.24906409 -0.048833337 -0.40852153 -1.1881864 -0.67223847
1.5744078 -0.7223542 0.48698077 0.35705683 -1.0285609 -0.28656617 -0.35357875 0.19077699
0.87625974 0.1759936 -0.3447221 -0.5350068 0.86592174 -2.2241259 0.7361096 -0.36923352
-0.55019385 1.2811426 -0.067472085 -0.12089075 -0.3529005 -0.57210714 1.4267623 -0.66196454
0.16085097 -0.36123055 0.22411335 -0.79881793 -0.53356814 -0.6589927 -0.46804225 0.56070596
1.427583 -1.7844874 1.2539244 -1.2127763 0.55594873 -0.38362926 0.7848755 -0.9281497
0.07157547 -1.0487618 -1.1314256 1.5241895 -0.76553476 0.2979225 -0.51735127 0.9806925
-0.94442934 -0.7104847 2.079519 -0.082687296 0.3774353 -0.7461438 -0.41622698 -0.8925974
0.5834794 -0.8175649 -1.4664208 0.7760358 0.067618504 -1.102399 2.1478734 -1.2011963
-0.93739223 -0.38154188 -0.35343927 0.72853386 0.594881 -1.8875235 0.04016919 -0.49242857
1.4019932 -1.5441382 1.2163427 -0.88527846 -0.44523454 -1.2707154 -0.30180532 -0.8624412
2.0711849 2.2662 -0.20390889 1.999241 0.92586184 -0.33531997 -0.76450384 -0.17252398
1.2027278 0.09609256 0.69476086 1.2043686 -0.5905151 -0.22834417 -2.9077733 -0.45490164
-0.5496166 0.39547113 -2.1950452 2.5598648 0.9246998 -2.2760935 1.4613447 -0.021554157
0.006537468 0.39803803 0.44449455 1.8769964 0.91293114 0.6381164 -0.3817558 -2.0381763
00000000: 60cb 70be d7a0 b9bd 059d 13bf 628c 893f
00000010: ee38 ebbe adf6 85be a3ef 10bf c874 efbd
00000020: 2d91 69be ad35 22bf 9180 e7bf 0a0a 11be
00000030: c82e 92bf 6ebd 4dbf b8b2 bc3f 3392 b4be
00000040: a2eb 08bf 2a8b 93bf a689 783f c842 c4be
00000050: 5f05 27bf 1498 d1bf 7080 4b3f c362 153e
00000060: 23c6 8c3e d3b4 ecbd 7ddc 31bf d2c8 8e3d
00000070: b444 9fbf f9ab c9be c47a 883f c5dd d53f
00000080: 15ed 8dbf 7d15 a9bf 10ba 23c0 d3be 333e
00000090: aa18 babb 20ab 54be 317e 6d3f a8aa 3e3f
000000a0: bf72 e53d f3cb 0ac0 2419 2140 777d 8e3e
000000b0: 8be7 42be df66 49bf 717b d93e f5bb b7bf
000000c0: 3a50 5bbf 5e0d 47bf 2340 0e3f 0339 58bf
000000d0: 9696 a73e 62ff 953f 50aa cabd 4d09 dfbd
000000e0: 1266 aabf 8b04 853f c841 6c3f 5a2f d1be
000000f0: 7a49 e13e c32e 43bf 7f34 c03f 2cfc 2abf
00000100: 1058 a53d 917a 69bf 0fa1 aebe 0843 d1be
00000110: 008f c6bf def0 55bf d554 8ebe 845c 27c0
00000120: 3225 a23f 9c93 b9be 5a4b 85bd 0043 a33e
00000130: ab76 a8bd 67c2 89bf faac 643e 213e a73f
00000140: 8da6 b73d 6778 08c0 48cd b73f be03 1e3f
00000150: df1e ea3e 4195 53be 346e 7bbe 2c70 583f
00000160: 3e0e 743f 7c46 f0be 9560 e23e 7a9f 02c0
00000170: c1d8 333f bb6c 8cbf 2b06 acbf 212e 443f
00000180: cbd2 a1bf 2c0a cfbf d6b2 fb3e 2841 f23e
00000190: d048 d73d 1bdf a23d 57a4 81bf b5fc a13f
000001a0: beee e3bf 9516 953f d8a0 51bf 25b9 f0be
000001b0: d541 6a3b c370 e1be 8704 29be 97cc 9cbf
000001c0: 2ba9 d6be 6cd0 113f 8533 f73e 74f9 ecbe
000001d0: ff58 873e 5111 bf3f de9c 0bbf 9e89 03bf
000001e0: ac70 e93f 987c 263f 59df 4ebf df23 213f
000001f0: 3c55 0240 47f2 8e3f 70ce 823f d58a bd3f
00000200: 84e0 21bf 7474 98bf 25cb 5c3f cb96 93bf
00000210: 0657 e4be 9770 8c3e 162a c23f 5295 2dbd
00000220: 83a7 213f 6d95 793f ad80 60bf a80a 7f3e
00000230: 7705 48bd bc29 d1be 7e16 98bf d217 2cbf
00000240: 3286 c93f 34ec 38bf 8b55 f93e 27d0 b63e
00000250: e2a7 83bf cdb8 92be 4608 b5be 0b5b 433e
00000260: 8f52 603f ab37 343e 6a7f b0be 35f6 08bf
00000270: 0cad 5d3f 1458 0ec0 ae71 3c3f 2d0c bdbe
00000280: 81d9 0cbf 7bfc a33f ce2e 8abd 9295 f7bd
00000290: 60af b4be 9d75 12bf 26a0 b63f 8276 29bf
000002a0: 1eb6 243e 36f3 b8be f87d 653e 557f 4cbf
000002b0: ec97 08bf bfb3 28bf 3ca3 efbe 6d8a 0f3f
000002c0: 0abb b63f 156a e4bf 9880 a03f 413c 9bbf
000002d0: a852 0e3f 0e6b c4be 9aed 483f 389b 6dbf
000002e0: 2996 923d d43d 86bf 8ed2 90bf a418 c33f
000002f0: 16fa 43bf 4c89 983e 2271 04bf aa0e 7b3f
00000300: 1fc6 71bf 53e2 35bf d716 0540 f557 a9bd
00000310: 333f c13e 4803 3fbf b41b d5be 4381 64bf
00000320: e85e 153f ef4b 51bf adb3 bbbf 48aa 463f
00000330: 927b 8a3d 691b 8dbf c276 0940 cdc0 99bf
00000340: f0f8 6fbf 7559 c3be fef5 b4be 3281 3a3f
00000350: 1f4a 183f 5f9a f1bf 7388 243d 991f fcbe
00000360: 8374 b33f 52a6 c5bf 1eb1 9b3f 9ca1 62bf
00000370: c8f5 e3be cda6 a2bf 3a86 9abe f2c8 5cbf
00000380: 4b8e 0440 6c09 1140 7ecd 50be 21e7 ff3f
00000390: 4805 6d3f 0faf abbe 86b6 43bf 20aa 30be
000003a0: fcf2 993f 2dcc c43d d9db 313f c028 9a3f
000003b0: ff2b 17bf 0ed3 69be f518 3ac0 dee8 e8be
000003c0: acb3 0cbf 317b ca3e 9f7b 0cc0 d3d4 2340
000003d0: 20b9 6c3f 84ab 11c0 580d bb3f 5892 b0bc
000003e0: 4238 d63b a4cb cb3e ca94 e33e 6b41 f03f
000003f0: dbb5 693f 995b 233f 7f75 c3be 7b71 02c0

embedding_outside.weight f4 [1889, 2]
-0.24443133 0.010917711 0.0042039207 0.07384582 -0.31414238 0.0963237 0.3447439 0.36027867
-0.45194015 1.0774381 0.16736458 -0.00036318044 -0.0040958775 -0.042440914 -0.7128697 1.1777397
0.5021783 -0.04095939 -0.018788116 0.09166599 -0.90713346 -0.039948717 -0.036638 0.07459327
-0.035481293 1.3414541 -0.57344675 0.6434815 0.12342889 0.40739778 -0.08948743 0.0036616432
0.086406745 -0.013888972 0.25435007 1.1527152 -0.010260187 0.025142737 -1.5143883 0.836421
0.1771794 0.024533503 0.0084717395 -0.21963891 -0.022506692 0.07927931 1.024326 1.3749515
0.009426637 0.01799631 0.5533866 -0.25281584 0.17863631 0.19126208 0.49519753 -0.6675587
0.4443993 0.096628875 -0.033325423 0.018286329 0.017023124 0.7418681 -0.11063314 0.04248463
0.92606825 0.2567627 -0.1454339 0.9485593 -0.061103784 0.13930963 -0.36034277 -0.7183458
-0.076422036 0.060574487 -0.074309744 0.038654625 -0.06783859 0.030732758 0.9142062 0.26624852
-0.14088868 -0.5504038 -0.1488904 -0.5315758 0.41891593 0.30246398 -0.0051466026 0.11387579
-0.27429906 -0.85759795 0.104591995 0.31984162 0.055789337 0.033960104 -0.5585536 0.38069916
-0.22943647 0.07684093 0.06462464 -0.24382286 0.44190562 0.573175 -0.07751905 0.027667336
-0.0004847257 0.04347504 0.08564633 0.029054446 0.057178337 -0.6167371 0.4640077 -0.41381133
0.05815771 0.3772097 -1.1335486 -0.6814973 0.28972068 0.005588864 0.028943585 0.10171186
0.5884071 -0.46130466 0.6037231 -0.56047785 -1.1995884 0.7673556 -0.014423245 0.019128012
0.12892635 0.025324445 -0.09869867 0.13812712 -0.07593872 0.0036248022 -0.26882875 0.77139586
-0.07745871 0.037070725 1.0137312 1.265866 -0.04604549 0.01730105 0.17694323 0.09054253
-0.07747771 -0.0005870263 -0.06918682 0.3721524 0.5613672 -0.38171986 -0.08410399 0.07387205
0.7632172 0.07888253 -0.5111033 -0.18167327 0.5921135 0.52546597 -0.68221104 -0.028738674
-0.03752348 0.029264893 0.7582913 1.4581879 0.7292327 -1.2263947 -0.04143344 0.031315483
-0.22850126 0.18940622 -0.099248335 0.038095318 0.030517083 0.03395127 0.11210176 -0.04762423
-0.07899546 0.0774241 0.30719936 -0.042490818 0.48979577 -0.00039804348 1.3192099 0.2779336
0.21653242 1.5525321 -0.8308542 1.1855915 -0.3256178 0.5391183 -0.20302346 0.047910295
-0.34873232 -1.304762 0.048435107 0.028196707 -1.5285218 0.92522 0.80537075 1.4814094
-0.078297675 0.028562061 0.022454204 -0.37756026 -1.2629364 0.5365768 0.2906729 0.09481687
-0.07619334 0.028580086 0.12988901 -0.16230349 -0.13661504 -0.00903909 0.45935386 -0.1717077
0.33370855 -0.025338955 1.3005583 0.50172174 -0.0450853 0.115979694 0.0048872735 0.03890724
0.25732806 1.0636122 -0.2905009 0.2317718 -0.03008854 -0.17758618 -0.18000196 0.46247202
-0.07948794 0.037096772 -0.09416851 0.0020845225 0.5999358 -1.0440656 -0.3738279 0.16834852
-0.096138135 0.0684774 0.8874362 -0.39345813 -0.07787535 0.02673136 0.67527586 0.3232453
0.0319813 0.010811833 0.12880974 0.18216358 -0.05329147 -0.019942125 0.19549839 1.3195112
00000000: 354c 7abe 33e0 323c 0bc1 893b 7a3c 973d
00000010: 45d7 a0be 5c45 c53d 4682 b03e 7276 b83e
00000020: b364 e7be 7ee9 893f 9f61 2b3e 4169 beb9
00000030: b636 86bb 86d6 2dbd a17e 36bf 2dc0 963f
00000040: c28e 003f 09c5 27bd 89e9 99bc 61bb bb3d
00000050: e639 68bf 44a1 23bd ba11 16bd 5bc4 983d
00000060: d554 11bd c5b4 ab3f 68cd 12bf 34bb 243f
00000070: 49c8 fc3d 7196 d03e 3045 b7bd 2ef8 6f3b
00000080: 05f6 b03d 928e 63bc 2c3a 823e 2c8c 933f
00000090: 581a 28bc 24f8 cd3c 7ad7 c1bf b01f 563f
000000a0: 846e 353e 7cfa c83c 0dcd 0a3c 06e9 60be
000000b0: f45f b8bc 315d a23d 1d1d 833f 69fe af3f
000000c0: 2e72 1a3c ff6c 933c bfaa 0d3f 1471 81be
000000d0: 70ec 363e 35da 433e 888a fd3e 21e5 2abf
000000e0: 4e88 e33e 5ce5 c53d 3d80 08bd 36cd 953c
000000f0: 1474 8b3c 11eb 3d3f a193 e2bd 5d04 2e3d
00000100: cf12 6d3f 6776 833e a0ec 14be c8d4 723f
00000110: f647 7abd 2fa7 0e3e d97e b8be 83e5 37bf
00000120: 2883 9cbd f41c 783d b52f 98bd 5054 1e3d
00000130: f5ee 8abd 44c3 fb3c 6b09 6a3f ba51 883e
00000140: 1f45 10be 43e7 0cbf ba76 18be 5a15 08bf
00000150: 267c d63e 8fdc 9a3e d5a4 a8bb b637 e93d
00000160: ed70 8cbe 8a8b 5bbf 5434 d63d 48c2 a33e
00000170: 5c83 643d c019 0b3d 5efd 0ebf 00eb c23e
00000180: 65f1 6abe c75e 9d3d ec59 843d b3ac 79be
00000190: 7441 e23e 99bb 123f 4fc2 9ebd 9ca6 e23c
000001a0: c822 feb9 e212 323d 5867 af3d 9703 ee3c
000001b0: d533 6a3d 7ce2 1dbf 6b92 ed3e 14df d3be
000001c0: c736 6e3d a121 c13e 1f18 91bf 9b76 2ebf
000001d0: 4556 943e ca22 b73b 191b ed3c 4f4e d03d
000001e0: d9a1 163f 2030 ecbe 998d 1a3f 7a7b 0fbf
000001f0: 1d8c 99bf 6b71 443f 794f 6cbc 59b2 9c3c
00000200: 4505 043e 3675 cf3c 8722 cabd 3271 0d3e
00000210: c285 9bbd 178e 6d3b eca3 89be 337a 453f
00000220: aca2 9ebd 79d7 173d f2c1 813f e607 a23f
00000230: 329a 3cbd eeba 8d3c 9b30 353e 5d6e b93d
00000240: a2ac 9ebd abe2 19ba d2b1 8dbd c28a be3e
00000250: c3b5 0f3f c970 c3be b63e acbd 3b4a 973d
00000260: 3462 433f 2a8d a13d aad7 02bf 8f08 3abe
00000270: c094 173f f084 063f 62a5 2ebf 5e6d ebbc
00000280: 38b2 19bd eebc ef3c 611f 423f e7a5 ba3f
00000290: ffae 3a3f 80fa 9cbf 1cb6 29bd aa44 003d
000002a0: 3cfc 69be b4f3 413e b642 cbbd d609 1c3d
000002b0: f6fe f93c 7d10 0b3d 9c95 e53d a011 43bd
000002c0: 5fc8 a1bd 8790 9e3d 3c49 9d3e da0a 2ebd
000002d0: 83c6 fa3e 7eb0 d0b9 dfdb a83f 504d 8e3e
000002e0: adba 5d3e 5fb9 c63f dcb2 54bf 76c1 973f
000002f0: 60b7 a6be a803 0a3f 62e5 4fbe 963d 443d
00000300: 0b8d b2be 7102 a7bf e463 463d c8fc e63c
00000310: 9aa6 c3bf 38db 6c3f c72c 4e3f d39e bd3f
00000320: 885a a0bd fcfa e93c e1f1 b73c 944f c1be
00000330: e6a7 a1bf 195d 093f 14d3 943e 592f c23d
00000340: 410b 9cbd c920 ea3c a001 053e e332 26be
00000350: d0e4 0bbe b118 14bc 6e30 eb3e 25d4 2fbe
00000360: d9db aa3e a493 cfbc b278 a63f d670 003f
00000370: 5dab 38bd c386 ed3d 6c25 a03b 335d 1f3d
00000380: 81c0 833e 7224 883f 89bc 94be 9655 6d3e
00000390: 3e7c f6bc 27d9 35be 6f52 38be 22c9 ec3e
000003a0: 93ca a2bd c9f2 173d 6bdb c0bd 7c9c 083b
000003b0: 6595 193f f1a3 85bf 5f66 bfbe 8e63 2c3e
000003c0: 12e4 c4bd e13d 8c3d 052f 633f 5873 c9be
000003d0: 1d7d 9fbd bafb da3c e1de 2c3f 6880 a53e
000003e0: d3fe 023d 1d24 313c b3e6 033e 1789 3a3e
000003f0: 2848 5abd ab5d a3bc bb30 483e bee5 a83f
